ALTEGRAD/ALTEGRAD_lab_7_DLForSetsAndGraphGeneration_2024/code/model_lstm.pth.tar (torch, 622178 bytes, 18 tensors)

embedding.weight f4 [11, 128]
-0.20028397 -1.0795435 -0.41742823 -0.47230837 -0.20474297 -1.7615162 0.25788006 -1.7455392
-0.18249452 -1.2010372 -1.1140736 1.2425706 -0.6821621 0.5947081 -0.57543975 1.2476236
0.049938865 -0.019853486 -0.016435573 -1.2762998 -0.76456445 0.2719039 -0.47692427 1.3992057
0.86864287 -0.31570056 -0.40771464 1.3824624 -0.41576746 1.4443048 1.8217384 -0.8922216
-0.92446476 1.2754935 1.2408631 -1.684952 -0.07093674 -0.15836999 -0.58386093 -2.2909172
1.1718343 0.7309769 0.61852944 0.0809668 -0.29988453 -0.9375185 -1.8703243 2.0675066
-0.031774495 0.6223879 0.21265006 -0.005014244 -1.3982105 0.6773816 -0.3824883 0.73226845
-0.09431742 -1.2346658 0.4970212 -1.8952695 1.6293625 -1.2248428 0.7488019 1.1569619
1.0790675 1.1939995 -0.9270893 -0.27797925 0.24549662 1.7059505 -0.62917507 0.6194401
-0.8534541 0.6368652 -1.26389 0.8672533 1.7378037 -0.45290497 0.32218826 -0.51737046
-0.04654106 0.6313768 0.5247073 1.2678492 -1.2850333 -0.65503913 0.0052350853 -0.88832706
0.1666293 -1.358071 -1.2075957 0.96189845 -0.26852491 -0.4330292 0.9143759 1.563115
-0.8582934 0.3254727 -2.241261 -0.064359464 -0.1715955 -1.1217057 -0.15184115 -0.5462358
1.0368972 0.68666345 2.0470698 -0.90347886 0.09083168 0.29244342 1.3933676 0.403562
0.5638741 -0.8505808 0.8039193 0.6484788 -1.1508033 -2.06676 0.6536138 -0.21870816
-0.73282784 0.33984083 0.86002755 -1.2978883 2.1317496 2.0585482 1.2513818 0.7092018
-0.50517344 -0.2609421 0.017629294 -0.05880608 -0.5946321 0.47166064 -0.25377303 1.3318492
0.3140584 1.5474142 1.0253627 1.1992693 0.7355898 0.59997547 -0.7846508 0.24807386
-0.048203178 -1.3231776 1.754114 0.2208535 -0.90553796 1.6616794 -0.31615523 -0.54295546
1.5544227 -0.015937693 -1.1973884 -0.23321435 0.88872665 0.1809664 -0.25235808 -0.04320652
-1.5960329 0.20339225 -0.17844965 -1.2857597 -0.31524852 1.1864691 -0.6308827 -0.7478859
0.038841616 -0.099609494 0.12334388 0.040682457 1.0769004 -0.07587604 0.45342803 0.469573
-0.23014161 1.3693374 -0.71563405 -0.5136863 0.09391554 -2.1071372 0.8796338 -0.5734813
0.5059739 0.82092655 0.85949606 -0.3958109 1.7944914 -1.1268446 1.4772831 0.6650384
-0.09070022 -0.39065024 1.4201189 -0.6022149 0.07718509 -0.026239946 0.62052363 0.10558176
-0.4998079 -0.20034885 -0.95990014 -0.17674235 -0.5104019 0.9194081 -0.026059635 2.02981
0.029807921 0.98381627 0.8310122 -0.40310052 1.0755829 0.4402654 0.6141844 1.2903018
-0.5959593 0.06430487 -0.5921552 0.033256784 -0.03369455 -0.576362 0.061883043 0.6482794
-1.0528138 -1.7145228 -0.7943711 0.41720742 -0.84178543 -0.8299862 -0.9895116 0.81033504
-0.95389044 -1.3096675 -0.11368223 -0.39609903 0.49430302 0.47254592 1.0278268 -0.089664444
-0.015312519 0.4134964 0.10272308 -1.9653165 -0.37058353 1.7433858 0.4929681 -0.053433504
-0.23440056 1.5291905 2.9520311 0.5062728 0.7172435 -0.5881635 0.08875969 -1.4106807
00000000: 3e17 4dbe 7b2e 8abf 27b9 d5be 67d2 f1be
00000010: 24a8 51be 5d79 e1bf db08 843e d46d dfbf
00000020: d8df 3abe 96bb 99bf f799 8ebf 8e0c 9f3f
00000030: 2da2 2ebf ca3e 183f 0550 13bf 21b2 9f3f
00000040: b28c 4c3d c7a3 a2bc e5a3 86bc cb5d a3bf
00000050: 7fba 43bf fd36 8b3e 6b2f f4be 2c19 b33f
00000060: 615f 5e3f 81a3 a1be f9bf d0be 87f4 b03f
00000070: 79df d4be fbde b83f b92e e93f a368 64bf
00000080: b9a9 6cbf 5f43 a33f 9ad4 9e3f 82ac d7bf
00000090: 4847 91bd be2b 22be e977 15bf 639e 12c0
000000a0: abfe 953f 4d21 3b3f f257 1e3f ecd1 a53d
000000b0: 778a 99be 3601 70bf c966 efbf 0752 0440
000000c0: f925 02bd d054 1f3f f0c0 593e 874e a4bb
000000d0: 90f8 b2bf e168 2d3f 82d5 c3be f275 3b3f
000000e0: 7e29 c1bd 8709 9ebf 9079 fe3e 3198 f2bf
000000f0: f38e d03f a6c7 9cbf 7bb1 3f3f 5417 943f
00000100: e21e 8a3f fad4 983f b955 6dbf 4c53 8ebe
00000110: 7763 7b3e 965c da3f 9e11 21bf a093 1e3f
00000120: f87b 5abf 9909 233f 26c7 a1bf 5004 5e3f
00000130: 5a70 de3f 29e3 e7be dcf5 a43e 6472 04bf
00000140: d7a1 3ebd e9a1 213f 3853 063f e248 a23f
00000150: f97b a4bf a5b0 27bf 148b ab3b 6769 63bf
00000160: dfa0 2a3e 45d5 adbf 7f92 9abf fa3e 763f
00000170: 197c 89be 01b6 ddbe 8a14 6a3f 2714 c83f
00000180: 1eb9 5bbf 5ca4 a63e d270 0fc0 e5ce 83bd
00000190: bbb6 2fbe 0d94 8fbf 3f7c 1bbe 1cd6 0bbf
000001a0: 0cb9 843f 2dc9 2f3f 3103 0340 644a 67bf
000001b0: f605 ba3d 25bb 953e df59 b23f ae9f ce3e
000001c0: 0e5a 103f aabf 59bf a8cd 4d3f b502 263f
000001d0: 864d 93bf cc45 04c0 3c53 273f 08f5 5fbe
000001e0: 9b9a 3bbf 9eff ad3e c42a 5c3f 3421 a6bf
000001f0: 966e 0840 41bf 0340 472d a03f 408e 353f
00000200: 0c53 01bf 349a 85be 4f6b 903c a5de 70bd
00000210: cf39 18bf 817d f13e 8aee 81be 097a aa3f
00000220: 43cc a03e ab11 c63f 163f 833f a881 993f
00000230: 9d4f 3c3f fe97 193f e0de 48bf 1307 7e3e
00000240: b270 45bd e25d a9bf cf86 e03f 6b27 623e
00000250: 56d1 67bf e9b1 d43f 19df a1be 21ff 0abf
00000260: 53f7 c63f c48f 82bc 0644 99bf becf 6ebe
00000270: 9783 633f 424f 393e 1435 81be 52f9 30bd
00000280: ce4a ccbf 0f46 503e 81bb 36be c693 a4bf
00000290: 4168 a1be 38de 973f 8781 21bf 7375 3fbf
000002a0: 6318 1f3d 1000 ccbd b79b fc3d a6a2 263d
000002b0: dfd7 893f e664 9bbd b827 e83e df6b f03e
000002c0: 3eaa 6bbe 7346 af3f cb33 37bf f280 03bf
000002d0: ca56 c03d 56db 06c0 ae2f 613f accf 12bf
000002e0: 8187 013f 3e28 523f ef07 5c3f baa7 cabe
000002f0: e5b1 e53f 723c 90bf 9d17 bd3f f53f 2a3f
00000300: 09c1 b9bd 4f03 c8be 75c6 b53f c12a 1abf
00000310: 3713 9e3d 28f5 d6bc a3da 1e3f 403b d83d
00000320: d2e6 ffbe 4028 4dbe 04bc 75bf f2fb 34be
00000330: b3a9 02bf 545e 6b3f 047b d5bc 68e8 0140
00000340: be2f f43c 62db 7b3f 37bd 543f 3163 cebe
00000350: b3ac 893f 776a e13e 303b 1d3f 9c28 a53f
00000360: ca90 18bf 46b2 833d 7c97 17bf 4438 083d
00000370: 4c03 0abd 768c 13bf 1379 7d3d a4f5 253f
00000380: 9ac2 86bf 7c75 dbbf e85b 4bbf 369c d53e
00000390: 407f 57bf fa79 54bf a250 7dbf 1e72 4f3f
000003a0: 2a32 74bf 2fa3 a7bf 3bd2 e8bd 7ecd cabe
000003b0: 4915 fd3e 8af1 f13e d48f 833f fea1 b7bd
000003c0: 5ce1 7abc cdb5 d33e 7a60 d23d 7e8f fbbf
000003d0: 20bd bdbe 4427 df3f 5166 fc3e 17dd 5abd
000003e0: b306 70be 84bc c33f 14ee 3c40 189b 013f
000003f0: 459d 373f e291 16bf a4c7 b53d 2f91 b4bf

lstm.weight_ih_l0 f4 [256, 128]
-0.12889926 0.27407613 0.14343731 0.14209636 0.16654132 -0.11446804 0.13169324 -0.05441224
-0.050709333 -0.31957015 -0.023776794 -0.06700453 -0.1111107 -0.1210738 0.078700386 0.056686483
-0.16825528 0.14209764 -0.03192415 -0.02555934 0.18466733 -0.0641668 0.11772331 -0.01489759
-0.058477044 -0.22250089 0.17811522 -0.055693533 -0.05687415 0.06649604 0.027439658 -0.030745674
0.05449549 -0.1896981 0.066306844 -0.0244411 0.20440602 -0.019879093 -0.0018965611 0.025089728
0.0517978 -0.039367966 0.02147318 -0.058503296 0.061540134 0.045071866 0.26176295 -0.16371942
0.21254653 -0.08455471 0.07306414 0.03940769 0.032768507 0.01052985 -0.13515742 0.26676783
-0.1289842 -0.077828005 -0.044740263 0.32939315 -0.0486813 0.24623555 -0.31590918 -0.016975297
-0.015139552 -0.02676551 0.027693149 -0.023800263 0.110442236 0.003048303 -0.07219801 -0.06308976
-0.15829873 0.08064502 0.21588568 0.1688141 -0.045497634 -0.09788897 -0.051540837 -0.16736598
-0.07911938 0.098549165 -0.17281052 -0.2003868 -0.07609971 0.10463967 -0.11322941 -0.106329076
-0.032323834 -0.091218315 0.13336405 -0.15456013 -0.113837466 0.060766738 0.081183575 0.0035821479
0.1650051 0.11346288 -0.0552756 0.021273755 -0.09637701 0.037275113 0.20774366 0.03175564
0.08300991 -0.083177775 0.0279037 0.08948801 0.088623255 -0.0821113 -0.06710076 0.00010260256
-0.26368952 -0.024642779 0.0012302222 0.17073865 -0.00063645106 0.050358802 -0.09402844 0.054121178
0.05020549 -0.11218689 -0.14380221 0.34940115 0.10639403 0.18270345 0.13781302 -0.046485316
-0.052709755 0.16642413 0.107359804 0.31332088 0.3060188 0.06132586 0.05899258 0.015182691
-0.03138641 -0.13951002 0.022730649 -0.06948359 -0.22089367 0.0132343825 0.22613132 0.060574405
-0.2314468 0.13747571 -0.091830425 -0.15532735 0.18293251 -0.021067662 0.27804425 0.0448445
0.01769303 -0.12611696 0.21902552 -0.18809815 -0.073748395 -0.046271507 0.014936009 -0.062241662
0.069921635 -0.18247539 0.03273465 0.19752815 0.2232805 0.048732635 0.07336766 -0.015570581
0.08795733 -0.23688783 -0.033424508 -0.21822569 0.0074581434 0.115667395 0.19118 -0.0840108
0.13014527 -0.08642045 0.11907882 -0.1169165 0.14163676 0.118177004 -0.08794019 0.21518075
-0.2573417 -0.061229598 -0.06280994 0.18982695 -0.049415205 0.23245546 -0.20809346 -0.005731915
-0.054967273 -0.098736346 -0.18373384 -0.0022918168 0.13082266 -0.113197125 -0.08890928 -0.22804648
-0.010916339 -0.02419054 0.25373667 0.25261554 -0.09590871 -0.043599907 -0.25554135 -0.15035021
-0.057687376 0.29246235 -0.20859692 -0.12282285 -0.0103379795 0.13883013 0.041784994 0.03051229
-0.07045244 -0.117031224 0.18209043 -0.0024173139 -0.08542765 0.28046688 0.07068677 -0.2341157
0.0429395 0.18828791 0.012967082 -0.16658302 -0.21338007 0.026805779 0.24239378 -0.13394643
0.27163315 0.0071038427 0.12310821 0.05876203 0.051454816 -0.022494271 0.090889536 0.08706199
-0.22346161 0.1132381 0.040616546 0.21367224 -0.039044634 -0.08124899 -0.05903175 0.099850364
0.011811768 -0.22081584 -0.18641151 0.18948533 0.09386317 0.06429091 0.10854117 0.0019684646
00000000: 2bfe 03be b553 8c3e 3be1 123e b581 113e
00000010: cf89 2a3e 386e eabd 98da 063e 5edf 5ebd
00000020: 97b4 4fbd b39e a3be 8dc7 c2bc ac39 89bd
00000030: 028e e3bd 8af5 f7bd ab2d a13d 1630 683d
00000040: 1d4b 2cbe 0b82 113e e6c2 02bd d261 d1bc
00000050: 6f19 3d3e e269 83bd eb18 f13d 0515 74bc
00000060: a085 6fbd 46d7 63be d663 363e e71e 64bd
00000070: def4 68bd 132f 883d 22c9 e03c 5ade fbbc
00000080: aa36 5f3d 3840 42be e2cb 873d b438 c8bc
00000090: d04f 513e 7bd9 a2bc 0896 f8ba f988 cd3c
000000a0: ee29 543d 4e40 21bd 86e8 af3c 27a1 6fbd
000000b0: 8211 7c3d 479d 383d cb05 863e 10a6 27be
000000c0: cca5 593e 052b adbd a7a2 953d f569 213d
000000d0: 4538 063d 6485 2c3c b566 0abe cb95 883e
000000e0: 6f14 04be 4a64 9fbd 9141 37bd 38a6 a83e
000000f0: 0b66 47bd 2c25 7c3e d9be a1be c70f 8bbc
00000100: e20b 78bc 5843 dbbc bedc e23c c5f8 c2bc
00000110: 8a2f e23d 0ac6 473b 8ddc 93bd 3435 81bd
00000120: 1019 22be 3729 a53d 2311 5d3e 9add 2c3e
00000130: ba5b 3abd 037a c8bd 7c1c 53bd fd61 2bbe
00000140: 5709 a2bd 25d4 c93d 3ef5 30be 3332 4dbe
00000150: 2ada 9bbd 534d d63d d2e4 e7bd 0fc3 d9bd
00000160: ff65 04bd abd0 babd 9690 083e 0345 1ebe
00000170: 9e23 e9bd 8be6 783d 9343 a63d 78c2 6a3b
00000180: 19f7 283e 3a5f e83d ab68 62bd 4c46 ae3c
00000190: 4f61 c5bd caad 183d c1ba 543e 3412 023d
000001a0: 1a01 aa3d 1c59 aabd 4d96 e43c 7d45 b73d
000001b0: 1c80 b53d f829 a8bd 206c 89bd 542c d738
000001c0: 5002 87be a7df c9bc 683f a13a 1dd6 2e3e
000001d0: 82d7 26ba 0845 4e3d fc91 c0bd 2bae 5d3d
000001e0: 46a4 4d3d 3dc2 e5bd e340 13be b5e4 b23e
000001f0: 1de5 d93d 9d16 3b3e db1e 0d3e 6367 3ebd
00000200: 2fe6 57bd 166b 2a3e 75df db3d 986b a03e
00000210: 7fae 9c3e d330 7b3d 34a2 713d d2c0 783c
00000220: 098f 00bd b7db 0ebe a035 ba3c 6a4d 8ebd
00000230: f331 62be 06d5 583c f88e 673e de1c 783d
00000240: 6400 6dbe 6fc6 0c3e 9711 bcbd 220e 1fbe
00000250: a952 3b3e 1796 acbc d15b 8e3e deae 373d
00000260: f9f0 903c ce24 01be 3a48 603e cd9c 40be
00000270: 6609 97bd 3187 3dbd 2ab6 743c 1df1 7ebd
00000280: 1333 8f3d d4da 3abe c514 063d d244 4a3e
00000290: a5a3 643e df9b 473d c941 963d c01b 7fbc
000002a0: f922 b43d b992 72be 23e8 08bd 8e76 5fbe
000002b0: 7163 f43b 07e3 ec3d b1c4 433e db0d acbd
000002c0: cd44 053e 34fd b0bd 99df f33d eb71 efbd
000002d0: 3a09 113e c906 f23d fd19 b4bd 5858 5c3e
000002e0: 4bc2 83be e3cb 7abd 7fa2 80bd ff61 423e
000002f0: 9967 4abd ce08 6e3e 7416 55be cad2 bbbb
00000300: 5d25 61bd 4836 cabd b924 3cbe 4e32 16bb
00000310: 60f6 053e e5d3 e7bd 1216 b6bd 0485 69be
00000320: 72da 32bc 3d2b c6bc c6e9 813e d356 813e
00000330: c96b c4bd d195 32bd 51d6 82be 68f5 19be
00000340: 9949 6cbd a0bd 953e 6e9a 55be 8c8a fbbd
00000350: a160 29bc 7c29 0e3e be26 2b3d e9f4 f93c
00000360: 5e49 90bd 11ae efbd ea75 3a3e cc6b 1ebb
00000370: b1f4 aebd 5b99 8f3e 3ac4 903d 07bc 6fbe
00000380: 54e1 2f3d 8cce 403e e273 543c bd94 2abe
00000390: 4e80 5abe cb97 db3c 1336 783e 4129 09be
000003a0: 8013 8b3e 5ac7 e83b 2820 fc3d 74b0 703d
000003b0: 49c2 523d e845 b8bc 4b24 ba3d 8e4d b23d
000003c0: 1fd3 64be 61e9 e73d 895d 263d e5cc 5a3e
000003d0: 44ed 1fbd df65 a6bd 47cb 71bd 597e cc3d
000003e0: 2586 413c 8c1d 62be a9e2 3ebe 7108 423e
000003f0: 553b c03d f4aa 833d d54a de3d 5b01 013b

lstm.weight_hh_l0 f4 [256, 64]
-0.48954895 -0.74892634 0.40496168 -0.23817651 -0.34255198 -0.1402692 -0.033312537 -0.14636123
0.041493118 0.2094294 -0.31773034 -0.029485721 0.002376482 -0.02848237 0.07146981 -0.76675516
-0.033009153 -0.008738637 0.18201834 -0.17798989 -0.03796535 0.23473069 -0.0019304381 -0.035241403
0.012037233 -0.6732262 0.24464427 0.15677506 -0.12151005 0.033444002 -0.45708895 -0.0313385
0.627134 -0.16307692 0.048940066 -0.18981999 0.13978164 -0.26192355 0.38980588 -0.27160344
-0.07615217 -0.54816365 0.12470136 -0.011676533 -0.21284452 0.07504225 0.044971336 -0.21698031
0.16186288 -0.15964103 0.15596536 -0.12473936 0.23650514 0.14793696 0.2585942 -0.1543798
-0.03497556 -0.13727812 -0.102438174 0.20056197 -0.23567277 -0.10806284 0.8226978 -0.1929931
-0.22568223 -0.6376431 0.2571921 -0.36429065 -0.41443977 -0.0112501085 -0.08442445 -0.0141782155
0.12718932 0.3495382 -0.3527668 -0.019655563 0.13422617 0.0018822171 0.15535347 -0.8874947
-0.11966304 -0.17593013 0.17596638 -0.10070173 -0.06511443 0.2190698 -0.08695407 0.12192469
0.236967 -0.56647444 0.11580992 0.17167819 -0.15337881 -0.04515322 -0.59873825 0.083817594
0.48737252 -0.13659063 -0.094630316 -0.09491713 0.29936802 -0.25896245 0.26610565 -0.14027292
-0.08018814 -0.6663162 0.28615457 0.092051424 -0.02180608 0.114193976 0.0470448 -0.14994848
0.0776474 -0.121354274 0.022797145 -0.22174878 0.080973804 0.02557918 0.13922875 -0.11907634
-0.009954903 -0.060791496 -0.19421864 0.08985331 -0.11928269 -0.15149966 0.8794945 -0.020348057
-0.20411272 -0.5578311 -0.12840395 0.030036017 0.080346696 -0.024987502 0.037905615 0.031611945
-0.035006817 0.0337869 0.44027388 -0.2435474 -0.014724686 0.047679815 0.041423712 -0.23698431
-0.08855957 -0.0438079 -0.07928305 -0.15452188 0.07593085 0.08765516 -0.060651977 0.020790273
0.06615264 0.40812692 0.027991444 -0.08778583 -0.020998795 -0.23247921 0.26946843 -0.12262698
0.067353114 -0.01813492 -0.11557612 -0.02553476 -0.093723446 -0.23877479 -0.03620113 -0.06583034
-0.019683106 -0.058708906 -0.025684802 -0.010131332 -0.050431184 0.0027542147 0.014762612 0.06060057
0.04210369 -0.05397352 -0.07703501 0.0063454146 -0.10524926 0.05411081 -0.16578016 0.06018915
0.08271288 -0.05080068 -0.057824805 -0.099422395 0.024865543 -0.082819976 -0.107721314 0.08954837
0.10593013 -0.14393131 -0.04250401 0.068416126 0.21671456 -0.03981951 0.045186013 -0.04819256
-0.083504274 0.17419246 -0.06688619 0.26432812 -0.085372284 0.025066141 -0.0052700797 -0.16368818
-0.03783981 -0.11145767 -0.05584488 0.1892992 0.0341716 0.047899853 -0.09996841 -0.2509621
0.07038612 -0.112665474 0.06575454 0.11693092 -0.08601432 0.2763014 0.32470846 0.018149277
0.06468432 0.038217343 0.02274045 -0.070116706 -0.003611103 0.011921185 -0.09027234 0.031576373
0.021058798 -0.031257264 -0.17851706 0.0891794 -0.04565587 0.14032504 -0.04950745 -0.035581388
-0.008586403 0.008858217 0.013668653 0.10552033 -0.015523194 -0.020595917 -0.030611392 0.08647957
-0.051908124 -0.028409636 -0.039227035 -0.028329683 -0.07881179 -0.030000284 0.037341263 -0.0733881
00000000: 29a6 fabe a3b9 3fbf 2357 cf3e 8be4 73be
00000010: f962 afbe bba2 0fbe ba72 08bd b8df 15be
00000020: b0f4 293d a974 563e 8dad a2be 0a8c f1bc
00000030: c0be 1b3b dc53 e9bc c45e 923d 114a 44bf
00000040: 9b34 07bd 802c 0fbc 0463 3a3e fb42 36be
00000050: 8e81 1bbd 3e5d 703e c106 fdba 4a59 10bd
00000060: d137 453c 8d58 2cbf 0784 7a3e a489 203e
00000070: 43da f8bd 94fc 083d 9007 eabe cd5c 00bd
00000080: db8b 203f a3fd 26be 6175 483d 2c60 42be
00000090: eb22 0f3e d81a 86be a394 c73e 9b0f 8bbe
000000a0: abf5 9bbd 7454 0cbf 6d63 ff3d ee4e 3fbc
000000b0: eaf3 59be c0af 993d dd33 383d 1630 5ebe
000000c0: 62bf 253e f078 23be 62b5 1f3e 5977 ffbd
000000d0: 672e 723e c97c 173e 7566 843e bd15 1ebe
000000e0: 8842 0fbd a392 0cbe 1bcb d1bd 1e60 4d3e
000000f0: 3454 71be 0d50 ddbd 539c 523f fc9f 45be
00000100: 3e19 67be 943c 23bf afae 833e 4e84 babe
00000110: 7331 d4be 6052 38bc bae6 acbd bf4b 68bc
00000120: eb3d 023e acf6 b23e da9d b4be b404 a1bc
00000130: 9672 093e bab4 f63a fb14 1f3e da32 63bf
00000140: e511 f5bd 0727 34be 8830 343e b53c cebd
00000150: b75a 85bd d553 603e fa14 b2bd a7b3 f93d
00000160: 7aa7 723e 7804 11bf c02d ed3d 68cc 2f3e
00000170: 560f 1dbe 95f2 38bd e946 19bf 8fa8 ab3d
00000180: e488 f93e 6ade 0bbe 8acd c1bd ea63 c2bd
00000190: c446 993e ba96 84be 003f 883e b4a3 0fbe
000001a0: ae39 a4bd b393 2abf da82 923e 7585 bc3d
000001b0: aaa2 b2bc 88de e93d 0cb2 403d 188c 19be
000001c0: 9a05 9f3d 9788 f8bd 14c1 ba3c 1d12 63be
000001d0: 98d5 a53d 6e8b d13c fb91 0e3e 4cde f3bd
000001e0: e419 23bc 8100 79bd 40e1 46be 0305 b83d
000001f0: 7c4a f4bd ba22 1bbe 8d26 613f f8b0 a6bc
00000200: ed02 51be 05ce 0ebf 537c 03be 180e f63c
00000210: cf8c a43d 97b2 ccbc eb42 1b3d 877b 013d
00000220: 4f63 0fbd 2264 0a3d 946b e13e 7d64 79be
00000230: cf3f 71bc e94b 433d e9ab 293d 04ac 72be
00000240: b85e b5bd ea6f 33bd 275f a2bd fc3a 1ebe
00000250: a281 9b3d 8c84 b33d 356e 78bd 5d50 aa3c
00000260: 097b 873d 03f6 d03e 504e e53c 0fc9 b3bd
00000270: aa05 acbc 080f 6ebe c4f7 893e db23 fbbd
00000280: 6ef0 893d af8f 94bc 2cb3 ecbd 462e d1bc
00000290: 14f2 bfbd 6181 74be a347 14bd 0fd2 86bd
000002a0: 773e a1bc c078 70bd ef68 d2bc e3fd 25bc
000002b0: ee90 4ebd 0e80 343b e2de 713c 4e38 783d
000002c0: eb74 2c3d 5613 5dbd 88c4 9dbd 32ed cf3b
000002d0: ed8c d7bd 4ca3 5d3d 46c2 29be e688 763d
000002e0: 5f65 a93d 6014 50bd b4d9 6cbd f89d cbbd
000002f0: d3b2 cb3c 859d a9bd fe9c dcbd 2365 b73d
00000300: e5f1 d83d bb62 13be af18 2ebd c11d 8c3d
00000310: 6cea 5d3e c819 23bd f814 393d 9065 45bd
00000320: 4a04 abbd 825f 323e a0fb 88bd 0456 873e
00000330: aad7 aebd 8257 cd3c a2b0 acbb e09d 27be
00000340: ebfd 1abd eb43 e4bd 9abd 64bd a6d7 413e
00000350: 85f7 0b3d a332 443d 3dbc ccbd 1b7e 80be
00000360: 9926 903d 28bd e6bd 51aa 863d 7a79 ef3d
00000370: 4728 b0bd 6177 8d3e 3040 a63e cbad 943c
00000380: 3679 843d ca89 1c3d 2e4a ba3c 5999 8fbd
00000390: 41a8 6cbb 1351 433c b4e0 b8bd 3a56 013d
000003a0: 8083 ac3c 9e07 00bd 2dcd 36be b0a3 b63d
000003b0: a601 3bbd 5eb1 0f3e 53c8 4abd cabd 11bd
000003c0: fcad 0cbc 0e22 113c 7cf2 5f3c 0b1b d83d
000003d0: ff54 7ebc c5b8 a8bc bec4 fabc 331c b13d
000003e0: 9d9d 54bd 53bb e8bc 87ac 20bd a713 e8bc
000003f0: 1368 a1bd 28c3 f5bc 27f3 183d 804c 96bd

lstm.bias_ih_l0 f4 [256]
-0.30297342 -0.31332317 0.1278186 0.036002517 -0.07092696 0.0785492 -0.03476697 0.022355672
0.14968653 0.08840864 -0.2121417 -0.06084132 -0.13683824 -0.050247084 0.03591782 -0.41272554
-0.19715308 -0.06862512 0.0172821 -0.07343539 -0.007971604 0.17734335 -0.045594286 -0.2309813
0.14536487 -0.3304332 0.21531615 -0.030564787 0.3102236 -0.093446165 -0.2270492 -0.035670046
-0.31903982 0.053972464 -0.113267966 -0.12870891 -0.12575231 -0.27410388 0.060866352 -0.22986758
-0.05178048 -0.00013072447 -0.07610884 -0.27254304 -0.05089423 -0.0697044 -0.06383973 0.2210529
-0.12572253 0.15468682 0.026924023 0.00571655 0.11496072 -0.05232088 0.4322118 -0.16397667
-0.010717684 0.2991757 0.15149449 0.058904126 -0.08517072 0.27304456 0.07710248 -0.043505333
0.0152917085 -0.0014920231 0.06290998 0.14805831 0.16668302 0.24141571 0.1691668 0.19029105
-0.008713492 0.17132522 0.0054411767 0.019882966 0.1650967 0.19423664 0.15463236 -0.0990123
0.27065843 0.36764926 0.15284136 0.037062738 0.10751174 0.20225205 0.11552114 0.12698486
0.0742864 -0.11895009 -0.030448785 -0.0035201996 0.26300535 -0.04368812 0.13776049 0.055467684
-0.02642039 0.17945567 0.199778 0.116546914 0.03577274 0.13864495 0.2080322 -0.11963159
0.0077594835 0.104427375 0.008870287 0.368906 0.046874203 0.07929598 0.08855313 0.24466667
0.12418159 0.14681718 0.07222964 0.053345904 0.10084169 0.16014563 -0.0635553 0.19588868
0.11620868 0.07029412 0.253681 0.038821623 0.080754854 0.13838167 0.24676435 0.023644563
-0.07777338 0.041518357 -0.0071957605 -0.08592117 -0.012994552 0.33385062 0.07855453 0.2907833
-0.21261825 0.10816729 0.10906958 -0.13466457 -0.09125571 -0.05348267 -0.09877024 0.05670563
-0.04462329 0.034208402 0.008976067 -0.18180817 0.147122 -0.03064939 0.18382214 -0.037263505
0.1684202 0.24616073 -0.3030154 0.0033299383 0.18080431 -0.14123057 -0.069929406 -0.0010762693
0.017925764 0.11391838 0.00019286654 0.14214973 0.24024613 -0.13494898 0.060085166 -0.20314619
0.15752587 -0.087011814 0.018196566 -0.016267298 0.2760588 -0.03669749 -0.1726756 0.12238652
-0.13035488 0.25865185 0.14870463 0.19984177 -0.1751253 0.078984 -0.1956004 -0.07163483
0.34717783 0.29423988 0.164913 -0.13501322 0.20192909 0.3056586 0.09589149 0.1870518
0.0024914977 0.0056212987 0.3212558 0.28257576 0.19199367 0.30177584 0.051623747 0.07402657
0.2053719 0.28001648 0.16028023 0.112565 0.08431675 0.31452367 -0.0560828 -0.11022102
0.06738251 0.091719925 0.27276683 -0.116366416 0.153625 0.56268203 0.19650112 -0.11155614
0.4527418 0.14042193 0.39286372 -0.09033807 0.032204382 0.13066004 -0.1435086 0.36239
0.035897233 -0.032027423 0.40693164 0.016879926 0.08318253 -0.0018192726 0.36196703 -0.22179629
0.03783506 0.35335073 0.050794806 0.18205471 0.094046704 -0.048621193 0.014526977 -0.06513756
0.09982742 0.24035981 -0.0012554985 0.09364007 0.15307015 0.0013451205 0.4184909 0.41005167
0.2268182 0.30645025 0.34053043 0.14791971 0.2776666 0.2659916 0.29950035 0.16133398
00000000: 551f 9bbe e56b a0be e1e2 023e 6077 133d
00000010: 2742 91bd 67de a03d cf67 0ebd 3e23 b73c
00000020: 6d47 193e 970f b53d ac3b 59be bf34 79bd
00000030: 531f 0cbe e3cf 4dbd 901e 133d c350 d3be
00000040: 7fe2 49be 548b 8cbd 3193 8d3c 4b65 96bd
00000050: 559b 02bc 7f99 353e 13c1 3abd 5d86 6cbe
00000060: 87da 143e 8a2e a9be d67b 5c3e 0163 fabc
00000070: a1d5 9e3e b460 bfbd 967f 68be c11a 12bd
00000080: 3059 a3be 3b12 5d3d 09f9 e7bd 45cc 03be
00000090: 37c5 00be 5857 8cbe ff4e 793d 6862 6bbe
000000a0: c517 54bd 1513 09b9 f4de 9bbd c38a 8bbe
000000b0: 7876 50bd 2ec1 8ebd 68be 82bd b15b 623e
000000c0: 68bd 00be 3966 1e3e c58f dc3c e651 bb3b
000000d0: 8770 eb3d 6b4e 56bd dd4a dd3e 80e9 27be
000000e0: 3a99 2fbc 8f2d 993e 5f21 1b3e 7445 713d
000000f0: fd6d aebd 7fcc 8b3e e8e7 9d3d a632 32bd
00000100: 138a 7a3c fd8f c3ba f3d6 803d 999c 173e
00000110: f4ae 2a3e ae35 773e 103a 2d3e a8db 423e
00000120: 09c3 0ebc e16f 2f3e e64b b23b 9ae1 a23c
00000130: 1c0f 293e f8e5 463e f257 1e3e f6c6 cabd
00000140: be93 8a3e 863c bc3e 7282 1c3e 19cf 173d
00000150: 1d2f dc3d 291b 4f3e 5996 ec3d 5208 023e
00000160: 7823 983d 1b9c f3bd bb6f f9bc 26b3 66bb
00000170: a3a8 863e 50f2 32bd 1611 0d3e 1532 633d
00000180: 936f d8bc 3ac3 373e 9b92 4c3e 26b0 ee3d
00000190: 7086 123d f1f8 0d3e 6506 553e 6801 f5bd
000001a0: 4443 fe3b 05de d53d ae54 113c 3fe1 bc3e
000001b0: 2aff 3f3d ee65 a23d 585b b53d e689 7a3e
000001c0: eb52 fe3d 3e57 163e 22ed 933d 3c81 5a3d
000001d0: 1786 ce3d 37fd 233e 4829 82bd 0b97 483e
000001e0: d1fe ed3d 5df6 8f3d 7ae2 813e 6c03 1f3d
000001f0: cd62 a53d edb3 0d3e cbaf 7c3e 3eb2 c13c
00000200: a647 9fbd 270f 2a3d 6aca ebbb 70f7 afbd
00000210: 1ae7 54bc 78ee aa3e 33e1 a03d 8ce1 943e
00000220: 99b8 59be d086 dd3d df5f df3d 82e5 09be
00000230: 46e4 babd a510 5bbd 0d48 cabd 2a44 683d
00000240: e9c6 36bd 1c1e 0c3d 5b10 133c ec2b 3abe
00000250: 26a7 163e 6e14 fbbc df3b 3c3e 9ea1 18bd
00000260: 5876 2c3e 8f11 7c3e d624 9bbe 183b 5a3b
00000270: c424 393e bf9e 10be 2637 8fbd 9b11 8dba
00000280: 0dd9 923c 0a4e e93d 383c 4a39 b38f 113e
00000290: 1503 763e 1130 0abe dd1b 763d 8e05 50be
000002a0: 764e 213e 4033 b2bd f710 953c ff42 85bc
000002b0: 9457 8d3e 1b50 16bd dfd1 30be c9a5 fa3d
000002c0: c07b 05be 046e 843e 0746 183e 52a3 4c3e
000002d0: 0c54 33be 5dc2 a13d 794b 48be 48b5 92bd
000002e0: 4bc1 b13e 9ca6 963e f4de 283e e840 0abe
000002f0: 80c6 4e3e 497f 9c3e c262 c43d 828a 3f3e
00000300: 6548 233b df32 b83b a47b a43e c5ad 903e
00000310: fd99 443e 5d82 9a3e 6c73 533d 3e9b 973d
00000320: 034d 523e 525e 8f3e 8020 243e 7b88 e63d
00000330: 43ae ac3d 3f09 a13e 14b7 65bd 8fbb e1bd
00000340: d7ff 893d a8d7 bb3d 18a8 8b3e 8451 eebd
00000350: df4f 1d3e ee0b 103f 9737 493e 8c77 e4bd
00000360: c6cd e73e c4ca 0f3e 6f25 c93e 2b03 b9bd
00000370: bee8 033d bfcb 053e ebf3 12be 2f8b b93e
00000380: fa08 133d 302f 03bd 5859 d03e c547 8a3c
00000390: 9a5b aa3d a974 eeba be53 b93e 911e 63be
000003a0: f0f8 1a3d 63ea b43e 370e 503d 8d6c 3a3e
000003b0: 8f9b c03d 0427 47bd 8f02 6e3c d766 85bd
000003c0: 5272 cc3d e220 763e 8a8f a4ba 5dc6 bf3d
000003d0: 6cbe 1c3e c14e b03a 7044 d63e 4bf2 d13e
000003e0: 0843 683e 0ce7 9c3e 015a ae3e 4478 173e
000003f0: 512a 8e3e 0d30 883e 1c58 993e bc34 253e

lstm.bias_hh_l0 f4 [256]
-0.26808396 -0.2520861 -0.025803855 0.1007481 -0.13177702 0.112866744 -0.16405922 -0.037557267
0.08167718 0.09130109 -0.28036696 -0.1307392 -0.20495786 0.06440195 -0.14206223 -0.1789392
0.046167634 -0.09065755 -0.024194786 -0.23343356 -0.06813132 0.16108365 -0.0029709795 -0.06784585
0.11557282 -0.20720163 0.20767847 -0.0816281 0.24846193 -0.15208344 -0.20004374 -0.04899125
-0.2917145 -0.0420367 -0.0071209036 -0.17214687 -0.21833618 -0.16688712 -0.078850396 -0.22427079
-0.013728995 -0.07706233 -0.2204543 -0.3185388 -0.11410442 -0.14092438 0.0032356859 0.16611572
0.044904932 0.024764886 0.06388998 -0.096583985 0.09011451 -0.13684161 0.51517725 0.051265355
0.08535426 0.42299506 0.13094349 -0.124514624 0.058075726 0.40016314 -0.011949063 0.0056266226
-0.09458151 -0.13946024 0.20265506 0.09324202 0.14058796 0.041748766 0.20754856 0.24260962
-0.011420724 0.075299874 -0.016369928 0.090620585 0.21159485 0.082505316 0.09982539 -0.015130218
0.11607193 0.34561592 0.052711602 0.039885577 0.26220822 0.24095155 0.27739242 0.07985234
0.04991709 -0.03372538 0.09639892 0.05890805 0.16480689 -0.09030315 -0.010007607 0.087538995
-0.033210076 0.16234845 0.08828806 0.03874527 0.12494926 0.020524183 0.070986934 -0.08433266
0.057819087 0.30160597 -0.037761144 0.34366414 0.11361101 0.25860846 0.2450716 0.33138824
0.31003666 0.19510353 0.03576097 0.06436486 0.22233078 0.15421332 -0.018902102 0.015155775
0.1428707 0.22301537 0.3186409 0.033243872 0.30703864 0.21058731 0.35826582 0.20383464
-0.17873597 -0.09878481 0.04954267 -0.08839162 0.050508536 0.19371597 0.080458365 0.07654977
-0.21703525 -0.06200334 0.09895722 -0.086875245 0.038201313 -0.122876175 0.020971747 -0.029035764
0.0798834 0.15061703 -0.0916768 -0.10632472 0.2641283 -0.15046518 0.24178474 0.04726184
-0.028779013 0.22786959 -0.12214276 -0.008813074 0.22651824 -0.19902824 -0.19443792 0.0072268904
0.023763316 0.098474875 0.15740964 0.0029991784 0.020134864 -0.0679755 -0.004748342 -0.2617245
0.30083767 -0.060075603 0.111115836 -0.04861962 0.058693163 -0.115888365 -0.108464025 0.18100733
-0.10664496 0.4073854 0.11532432 0.22227958 -0.1413285 -0.036918376 -0.34565762 0.04844441
0.20704627 0.365134 0.2771421 -0.12062811 0.21153992 0.3266302 -0.09631328 0.32838976
-0.05357018 0.03383953 0.47031963 0.3946282 0.10536948 0.34574845 0.089616425 0.1637083
0.1811748 0.46724048 0.16093862 -0.120338716 -0.088222556 0.16388744 -0.07079863 -0.033031434
-0.09509266 0.029687874 0.07163966 0.06344453 0.04640901 0.58407176 0.42963433 0.026002098
0.24821998 0.21814336 0.39450273 -0.09013113 0.036457002 0.17693286 -0.093830176 0.25790274
0.009199852 0.14957735 0.45414698 -0.12802264 -0.09098339 0.017102374 0.25853747 -0.22324507
0.0546469 0.21311072 -0.15478519 0.16001542 0.0960126 -0.013946266 0.048157092 -0.11522811
0.098660514 0.33459428 -0.061930336 0.07742391 0.30451155 0.122618414 0.46640587 0.19651371
0.28246546 0.22136243 0.21956562 -0.025487266 0.16211833 0.18768473 0.29816252 0.26857597
00000000: 4d42 89be 6e11 81be 9b62 d3bc 0555 ce3d
00000010: 8ef0 06be ae26 e73d 24ff 27be a6d5 19bd
00000020: 5e46 a73d 11fc ba3d 428c 8fbe 7fe0 05be
00000030: 79e0 51be 2be5 833d c378 11be d63b 37be
00000040: 461a 3d3d aaaa b9bd 2534 c6bc 3509 6fbe
00000050: 6f88 8bbd 1df3 243e c4b4 42bb c4f2 8abd
00000060: 71b1 ec3d aa2c 54be aaa9 543e a22c a7bd
00000070: ce6c 7e3e c3bb 1bbe 44d8 4cbe 0dab 48bd
00000080: 9a5b 95be ad2e 2cbd 7856 e9bb 4547 30be
00000090: 8593 5fbe 75e4 2abe 517c a1bd 3ea7 65be
000000a0: 94ef 60bc dbd2 9dbd c6be 61be 8517 a3be
000000b0: 94af e9bd 7b4e 10be cd0d 543b 3d1a 2a3e
000000c0: 3cee 373d bbdf ca3c c0d8 823d d3cd c5bd
000000d0: f58d b83d 3520 0cbe a8e2 033f 9ffb 513d
000000e0: 37ce ae3d cf92 d83e 0d16 063e 8601 ffbd
000000f0: d0e0 6d3d 2fe2 cc3e 01c6 43bc 885f b83b
00000100: f3b3 c1bd aace 0ebe cf84 4f3e acf5 be3d
00000110: 4af6 0f3e c100 2b3d 9c87 543e a86e 783e
00000120: fd1d 3bbc d236 9a3d 3a1a 86bc 4997 b93d
00000130: 52ac 583e 8cf8 a83d 4171 cc3d bce4 77bc
00000140: 1fb7 ed3d 92f4 b03e 1fe8 573d 0f5f 233d
00000150: 2840 863e 01bc 763e 6106 8e3e a089 a33d
00000160: dd75 4c3d a023 0abd cc6c c53d 9149 713d
00000170: 23c3 283e dcf0 b8bd f2f6 23bc a547 b33d
00000180: 4a07 08bd ac3e 263e 5fd0 b43d 5cb3 1e3d
00000190: 66e5 ff3d 5522 a83c 9961 913d 9ab6 acbd
000001a0: b5d3 6c3d 196c 9a3e 6eab 1abd bff4 af3e
000001b0: e4ac e83d 5468 843e 0df4 7a3e b8ab a93e
000001c0: 20bd 9e3e 38c9 473e 187a 123d b9d1 833d
000001d0: aeaa 633e 19ea 1d3e 95d8 9abc ed4f 783c
000001e0: b24c 123e 245e 643e e624 a33e ba2a 083d
000001f0: 2b34 9d3e 33a4 573e 9e6e b73e 07ba 503e
00000200: 9006 37be b14f cabd 41ed 4a3d aa06 b5bd
00000210: 0ae2 4e3d 7b5d 463e 5bc7 a43d 20c6 9c3d
00000220: 7d3e 5ebe 37f7 7dbd 15aa ca3d a6eb b1bd
00000230: fb78 1c3d 81a6 fbbd f1cc ab3c 69dc edbc
00000240: e899 a33d 5a3b 1a3e 0cc1 bbbd c6c0 d9bd
00000250: d33b 873e 8b13 1abe 6b96 773e a295 413d
00000260: f7c1 ebbc a556 693e fc25 fabd b664 10bc
00000270: 66f4 673e 0fce 4bbe bc1a 47be 8dcf ec3b
00000280: 49ab c23c 32ad c93d fe2f 213e dd8d 443b
00000290: dff1 a43c bd36 8bbd fb97 9bbb c100 86be
000002a0: 6507 9a3e d611 76bd b390 e33d 5e25 47bd
000002b0: 3e68 703d e156 edbd 6322 debd fc59 393e
000002c0: ac68 dabd d294 d03e 282f ec3d 429d 633e
000002d0: 6bb8 10be b937 17bd 09fa b0be a56d 463d
000002e0: f003 543e d8f2 ba3e 92e5 8d3e df0b f7bd
000002f0: ec9d 583e 133c a73e e63f c5bd b422 a83e
00000300: 686c 5bbd 529b 0a3d bccd f03e b50c ca3e
00000310: f4cb d73d f105 b13e d188 b73d 26a3 273e
00000320: e385 393e 253a ef3e 18cd 243e 2574 f6bd
00000330: 07ae b4bd 1cd2 273e dffe 90bd f84b 07bd
00000340: f1bf c2bd fc33 f33c d0b7 923d 35ef 813d
00000350: 6017 3e3d ba85 153f 08f9 db3e 5a02 d53c
00000360: 612d 7e3e f960 5f3e 43fc c93e ab96 b8bd
00000370: f053 153d e32d 353e 092a c0bd d40b 843e
00000380: faba 163c ce2a 193e f485 e83e 5e18 03be
00000390: 8055 babd 471a 8c3c 065f 843e 5b9a 64be
000003a0: 6ed5 5f3d b239 5a3e 0280 1ebe 15db 233e
000003b0: 41a2 c43d e17e 64bc 5f40 453d b7fc ebbd
000003c0: 860e ca3d f14f ab3e aaaa 7dbd 6d90 9e3d
000003d0: f0e8 9b3e 5d1f fb3d c0cc ee3e e43a 493e
000003e0: 509f 903e d5ac 623e cfd5 603e acca d0bc
000003f0: 5902 263e 6d30 403e c2a8 983e ca82 893e

fc.weight f4 [1, 64]
-2.149642 -1.9656662 1.0784267 -0.9798516 -1.4203595 1.0144786 1.1223813 0.88924223
-0.9315633 1.0400368 -1.7887763 -1.208933 -0.90231675 -1.0082169 -1.0387406 -1.9535154
1.0558295 1.004336 -0.98553663 -1.2391688 0.92349476 -0.9897814 1.071319 1.225694
1.1728882 -2.4905894 -0.9589085 -1.1935804 0.97543013 -1.1245482 -1.6246254 -1.1501328
2.1960886 1.0256319 1.1307511 0.97599393 1.3174213 -1.4121561 1.1534578 -1.5512248
0.9289457 -1.1558571 1.4587644 -0.9495702 1.0167842 -1.0942701 -0.87756664 0.89207023
-0.9312738 0.90430075 1.1169672 0.92143303 -1.0962493 -1.136401 -0.9746998 -1.1646827
0.8876938 0.9398563 0.93907005 -1.0633248 1.0752198 0.9888837 1.0617373 0.91711503
00000000: bc93 09c0 f39a fbbf e309 8a3f 8ed7 7abf
00000010: 57ce b5bf 6fda 813f 31aa 8f3f 61a5 633f
00000020: ef7a 6ebf ed1f 853f 9ff6 e4bf 51be 9abf
00000030: 3bfe 66bf 400d 81bf 74f5 84bf cb0c fabf
00000040: 6c25 873f 158e 803f 214c 7cbf 159d 9ebf
00000050: 276a 6c3f 5062 7dbf fb20 893f 8ae3 9c3f
00000060: 3321 963f d165 1fc0 077b 75bf 3ec7 98bf
00000070: cab5 793f 32f1 8fbf baf3 cfbf 8d37 93bf
00000080: b78c 0c40 e847 833f 74bc 903f bdda 793f
00000090: 43a1 a83f 88c1 b4bf 81a4 933f 898e c6bf
000000a0: 63cf 6d3f 20f3 93bf cbb8 ba3f 0817 73bf
000000b0: fc25 823f 0b11 8cbf 35a8 60bf b75e 643f
000000c0: f667 6ebf 4180 673f c8f8 8e3f 09e3 6b3f
000000d0: e651 8cbf 9775 91bf ed85 79bf 5314 95bf
000000e0: e73f 633f 6c9a 703f e566 703f 071b 88bf
000000f0: cda0 893f 7b27 7d3f 02e7 873f 0dc8 6a3f

exp_avg f4 [11, 128]
-0.0003318614 -0.0009621281 0.0006151223 0.0011431983 0.00078163674 -0.00019417697 -0.0006235756 -0.0010734942
0.00012826164 2.116646e-05 0.0009311406 -0.00016161967 -0.0005725529 0.00048472817 0.0017471986 0.0003874836
-0.0012641404 -0.0016240354 0.0006254252 0.0009544932 -0.00019895591 0.0010509621 0.0013152666 -0.00012703362
0.00041287253 -0.00031631626 0.0013008405 0.0004529412 0.0010385885 -0.0018075793 -0.0011937697 0.00020979402
-0.00013814527 -0.001445884 0.00012840526 3.0545147e-05 -0.0006084914 0.0020781162 0.0010791002 0.00045183048
-0.00035407118 0.001745409 -0.0014841637 0.0001079646 0.0019021641 0.00039067588 0.0010443764 -0.00050804735
0.0011776396 0.0007484959 0.0004239963 0.00038114376 0.00192829 0.00021343534 0.0003999654 0.00024054394
0.0004900848 0.00053040386 0.00019627159 0.0010153174 -0.00024975586 0.0006018967 0.0007443564 3.9546876e-06
-0.00038697285 0.00011596875 0.001925738 0.000714795 -0.0009885703 -0.0002796376 0.00028381715 -0.00091650814
-0.0010313245 -0.0018522067 7.471531e-05 -0.00070915977 -0.0015152857 -0.0006800118 -0.00068398635 0.000818162
0.0005863716 -0.00022189812 -0.001978974 -0.0009677644 -0.00021812001 0.00046977564 -5.4289827e-05 -0.0009553129
-0.0012433146 0.0012440799 0.00047164358 -0.0005427275 -0.0012779982 0.0004384446 0.0011526995 -0.0001393632
0.0011838453 9.2217575e-05 0.000981392 2.5986585e-05 -0.0002933407 0.00063775276 -0.0010952158 -7.24043e-05
0.00024008352 -0.0010097735 0.00065315876 -0.00038075508 5.575232e-05 -0.0020798608 0.00047391566 -0.0028692607
0.00020547761 0.0020959282 -0.00020666182 0.00053483323 -0.0008262511 -0.00055779767 -0.00065410935 -5.0589955e-05
0.00046885476 -0.0013053992 -0.00034806677 -0.0006096328 -0.0008483079 -0.0015790067 0.00040234963 -0.00083059724
-4.597623e-05 -0.0018145032 0.0009939371 0.00033353938 0.0005673367 0.00093225663 0.00026112288 -0.0014760668
-0.00094179314 0.00014724342 0.00091878365 -0.0003108446 -0.00071872346 0.0011964642 0.0021960686 0.0005679612
-0.002457118 -0.0019238038 0.00092558615 0.00014386776 -0.00030194613 0.0016518733 0.0011146588 -0.0014099414
-0.00023627236 0.00011843377 0.0011231093 4.8663887e-06 0.0013525389 -0.0019760625 -0.0005513042 -0.00035691808
5.4406028e-05 -0.0026758935 -0.0008066857 -0.0006283446 -0.0003130525 0.0025882644 0.0018126285 8.941387e-05
-0.0007082108 0.0023715242 -0.0006367097 0.00016134423 0.0015127034 2.711115e-05 0.0007902798 -0.00090519927
0.00078481645 0.00038805272 -3.9307844e-05 0.00080357067 0.0017426859 0.00024538388 0.0008205302 -0.00029470504
0.0012502488 0.00015305384 -6.373932e-05 0.00041309412 -0.0007983935 1.6073662e-05 0.00116155 -0.0005031507
-0.0011009398 0.0005468022 0.0010227755 0.0007383242 -0.0013232288 -0.0017628837 0.0005211305 -0.0013008601
-0.00097467774 -0.0024163332 -0.0005870341 -0.0003688692 -0.00023691733 -0.00015062124 -0.00094578246 0.00057296763
-8.5447566e-05 0.0010819427 -0.0020607833 -0.00068150443 -0.00067811477 0.0018644906 -0.00044517568 -0.0008560306
-0.0018468827 0.00073503493 -0.00013584513 -0.00041064786 -0.0011740619 0.00037346108 0.0011876378 -0.00051255437
0.0018549557 0.00034268282 -2.3000176e-07 0.001025847 -0.0006258078 2.3958499e-05 -0.0007779476 0.00013324598
-0.0008214539 -0.0017862681 0.0007855892 -0.00034174795 0.0005830078 -0.0020422395 0.0002990361 -0.0035413213
0.00020897752 0.0016457936 -0.00074631814 0.001425544 -0.001469778 9.047336e-05 -0.00073949574 0.00029270034
0.0003227997 -0.0013741414 7.895215e-05 -0.0012860696 -0.0017341647 -0.0014828151 0.00017602366 -0.0016258932
00000000: affd adb9 5337 7cba 2940 213a 5fd7 953a
00000010: c1e6 4c3a fc9b 4bb9 7377 23ba 7db4 8cba
00000020: f97d 0639 a08e b137 ca17 743a 7378 29b9
00000030: 6017 16ba 1d23 fe39 4202 e53a 2b27 cb39
00000040: 83b1 a5ba 96dd d4ba 93f3 233a f436 7a3a
00000050: d29e 50b9 70c0 893a 0665 ac3a 5434 05b9
00000060: d076 d839 40d7 a5b9 f780 aa3a bd78 ed39
00000070: 3f21 883a 4cec ecba 4478 9cba 27fc 5b39
00000080: 17db 10b9 d183 bdba 86a4 0639 9a1d 0038
00000090: 2b83 1fba 0131 083b 9870 8d3a a9e3 ec39
000000a0: a1a2 b9b9 35c6 e43a 4588 c2ba 0e6b e238
000000b0: 0952 f93a a1d3 cc39 75e3 883a 7b2e 05ba
000000c0: 075b 9a3a b636 443a d24b de39 40d4 c739
000000d0: adbe fc3a 9dcd 5f39 73b2 d139 863a 7c39
000000e0: 0979 003a cd0a 0b3a 41ce 4d39 6614 853a
000000f0: aaf1 82b9 9bc8 1d3a ea20 433a 82b2 8436
00000100: 9ee2 cab9 4034 f338 0b69 fc3a 1561 3b3a
00000110: ea92 81ba 539c 92b9 4bcd 9439 d241 70ba
00000120: 822d 87ba bec5 f2ba 7ab0 9c38 e8e6 39ba
00000130: 8d9c c6ba d242 32ba 8c4d 33ba ec79 563a
00000140: bbb6 193a 53ad 68b9 adb1 01bb 92b1 7dba
00000150: 25b7 64b9 384c f639 42b5 63b8 f76d 7aba
00000160: b7f6 a2ba 6510 a33a ee46 f739 d345 0eba
00000170: 8182 a7ba 0adf e539 2d16 973a 0622 12b9
00000180: 422b 9b3a ef64 c138 0da2 803a c4fd d937
00000190: 86cb 99b9 dd2e 273a 588d 8fba c3d7 97b8
000001a0: eebe 7b39 605a 84ba be38 2b3a 15a0 c7b9
000001b0: 99d7 6938 464e 08bb e277 f839 350a 3cbb
000001c0: 7a75 5739 d75b 093b 5cb3 58b9 0d34 0c3a
000001d0: c698 58ba 2b39 12ba 8978 2bba 8d30 54b8
000001e0: 9fd0 f539 ee19 abba bb7c b6b9 c4cf 1fba
000001f0: fb60 5eba acf6 ceba 74f2 d239 70bc 59ba
00000200: 9ad6 40b8 a0d4 edba ff46 823a e6de ae39
00000210: 52b9 143a af62 743a 52e7 8839 9578 c1ba
00000220: abe2 76ba 5b65 1a39 87da 703a dbf8 a2b9
00000230: b768 3cba add2 9c3a ebeb 0f3b 3be3 143a
00000240: 9907 21bb 2528 fcba 09a3 723a 35db 1639
00000250: 864e 9eb9 ac83 d83a be19 923a c8cd b8ba
00000260: e1bf 77b9 a55f f838 4b35 933a f649 a336
00000270: ad47 b13a d480 01bb 6685 10ba bc20 bbb9
00000280: 0732 6438 0b5e 2fbb c377 53ba 7eb7 24ba
00000290: 3221 a4b9 df9f 293b b895 ed3a b583 bb38
000002a0: 39a7 39ba 936b 1b3b dde8 26ba 832e 2939
000002b0: e745 c63a c06c e337 c82a 4f3a e54a 6dba
000002c0: 24bc 4d3a 8e73 cb39 7ade 24b8 b7a6 523a
000002d0: d66a e43a dea6 8039 d918 573a a482 9ab9
000002e0: 63df a33a 147d 2039 c9ab 85b8 8e94 d839
000002f0: 484b 51ba edd5 8637 273f 983a dfe5 03ba
00000300: 694d 90ba 4657 0f3a a70e 863a 198c 413a
00000310: 3170 adba 9010 e7ba 7a9c 083a 9f81 aaba
00000320: 8481 7fba 585b 1ebb 31e3 19ba c964 c1b9
00000330: 036d 78b9 15f0 1db9 63ee 77ba 3533 163a
00000340: 5032 b3b8 f9cf 8d3a 350e 07bb fda6 32ba
00000350: 83c3 31ba ec61 f43a 7866 e9b9 3e67 60ba
00000360: 1a13 f2ba 5caf 403a a671 0eb9 394c d7b9
00000370: fbe2 99ba 19cd c339 83aa 9b3a f15c 06ba
00000380: fc21 f33a 1caa b339 67f6 76b4 b775 863a
00000390: 400d 24ba 7cfa c837 2eef 4bba f2b7 0b39
000003a0: d756 57ba 3621 eaba 00f0 4d3a a22c b3b9
000003b0: fed4 183a 18d7 05bb f2c7 9c39 8315 68bb
000003c0: fa20 5b39 abb7 d73a 90a4 43ba 52d9 ba3a
000003d0: 91a5 c0ba 84bc bd38 b8da 41ba 9375 9939
000003e0: 713d a939 891c b4ba 1d93 a538 5691 a8ba
000003f0: e94c e3ba 055b c2ba fe92 3839 ec1b d5ba

exp_avg_sq f4 [11, 128]
7.38502e-06 5.7465833e-05 4.1720436e-05 0.00013253454 6.0002356e-05 4.630112e-06 5.4548174e-05 0.000111706766
9.707169e-06 5.9491017e-06 7.30561e-05 2.9215958e-05 5.918522e-05 1.0933783e-05 0.0002749522 3.1962743e-05
0.00015732362 0.00015992188 1.9172936e-05 6.5456006e-05 5.45406e-06 9.460649e-05 0.0001860113 1.9692552e-06
2.4667966e-05 9.87692e-06 0.00017572104 3.7673904e-05 8.3257626e-05 0.00032687877 0.00014293464 1.0854923e-05
8.072518e-06 0.00016420189 1.1597869e-05 1.6007898e-05 4.134789e-05 0.0003198514 0.00014681062 2.3661123e-05
7.4336576e-06 0.00024000194 0.0001736302 5.815259e-06 0.00032701902 1.3532254e-05 9.830294e-05 3.3858345e-05
0.00014111318 8.796185e-05 2.3117615e-05 1.4984641e-05 0.00038815878 7.554744e-06 1.878902e-05 2.2525937e-05
1.7724504e-05 3.48759e-05 1.607456e-05 0.00011788263 3.6657104e-05 5.612711e-05 7.6801516e-05 9.908255e-06
7.167001e-06 3.661165e-06 0.00033806666 5.619341e-05 9.098098e-05 5.9526656e-06 1.09618195e-05 7.21785e-05
9.67716e-05 0.00027772706 9.266064e-06 3.3035143e-05 0.00020205596 3.812679e-05 6.576895e-05 3.9350525e-05
3.035458e-05 3.3743559e-06 0.0003248545 9.909218e-05 5.7457037e-06 2.157447e-05 5.453045e-06 5.8140544e-05
0.00014580898 0.00015472698 3.1499843e-05 2.8782502e-05 0.00020521106 2.897804e-05 0.00012834487 3.2019188e-06
0.0001209959 1.7956352e-05 8.1665334e-05 5.9647273e-06 2.051043e-05 6.393576e-05 0.00011925827 6.8511704e-06
2.0096719e-05 9.878613e-05 3.3687455e-05 4.8615734e-06 7.455148e-06 0.00034716568 1.7066013e-05 0.00068997004
8.482855e-06 0.00036209825 1.0760019e-05 5.1553387e-05 4.4499262e-05 4.6274756e-05 3.6544432e-05 3.876081e-06
2.37979e-05 0.00022489016 2.9116032e-05 1.8841341e-05 7.512482e-05 0.00022024925 1.9296293e-05 9.773834e-05
5.123097e-06 0.00035715426 0.00014820854 5.501282e-05 2.6023785e-05 4.1703726e-05 0.00018354306 0.00015472241
1.1692179e-05 0.0004040302 5.3676154e-05 2.5238547e-05 3.996926e-05 3.734217e-05 0.00017290628 0.00043849542
0.00013637725 0.0004735887 9.833553e-05 0.0006297526 3.3151406e-05 4.8186896e-05 0.00012658128 2.3041577e-05
6.212547e-05 7.17251e-05 0.00015529162 0.00013662301 0.00014866484 0.00068831077 1.9683897e-05 0.00033427175
0.00016088148 0.00013391807 6.8673646e-05 6.2866995e-05 0.00050160545 8.217696e-05 4.9079434e-05 0.00011968912
0.00049442117 0.00015476817 0.00040397313 0.00013529249 0.00012889196 1.7201644e-05 0.00012553943 8.901782e-05
0.00010463694 5.186041e-05 2.400266e-05 3.2114523e-05 0.00035910727 0.00022643349 4.7418616e-05 0.0002488595
0.00033765516 4.5969977e-05 0.00016048171 0.00021444415 0.00011337837 7.3360585e-05 0.00020064772 3.123307e-05
7.20949e-05 5.468581e-05 0.000103523504 0.0003451025 7.29875e-05 2.8176704e-05 1.988708e-05 0.00019771894
0.00016677403 0.00020718767 5.682281e-05 0.00036685733 0.000107925254 2.0091395e-05 0.00015063313 0.00015650403
0.00039626364 0.000112336355 0.00011295254 2.4677356e-05 8.85913e-05 3.495601e-05 0.000109638364 4.854399e-05
8.060038e-05 0.00019916498 6.00823e-05 6.380172e-05 7.13154e-05 1.0226023e-05 0.0002767352 5.151955e-06
0.00023271603 4.806328e-05 0.000104626255 2.3221706e-05 0.0006298695 0.00012371509 0.00014095206 0.00011385288
0.00016378431 4.605783e-05 6.0341783e-05 2.4792804e-05 0.0001538827 0.00041673574 3.210393e-05 0.00054180995
0.00017787411 8.71017e-05 2.6475143e-05 2.2072974e-05 0.00012685092 0.00016183637 2.5022651e-05 0.00020448434
0.00020123353 0.0001358618 3.2386615e-05 0.00021485223 0.00012140948 0.0005682552 3.0901418e-05 2.9881005e-05
00000000: d7cc f736 7807 7138 fafc 2e38 f8f8 0a39
00000010: 0aab 7b38 5c5c 9b36 a8ca 6438 1d44 ea38
00000020: f9db 2237 659e c736 b235 9938 cb14 f537
00000030: a53d 7838 3e70 3737 7627 9039 bc0f 0638
00000040: 3df7 2439 b4b0 2739 91d5 a037 6d45 8938
00000050: 0502 b736 7967 c638 070c 4339 8c27 0436
00000060: 0eee ce37 0cb5 2537 c241 3839 0c04 1e38
00000070: 999a ae38 ed60 ab39 bae0 1539 8a1d 3637
00000080: 336f 0737 9c2d 2c39 7894 4237 b348 8637
00000090: f56c 2d38 bab1 a739 2df1 1939 e07b c637
000000a0: a26e f936 08a9 7b39 8010 3639 b220 c336
000000b0: c073 ab39 9708 6337 fd27 ce38 1f03 0e38
000000c0: c8f7 1339 2978 b838 b3ec c137 8b66 7b37
000000d0: ca81 cb39 c27e fd36 1d9d 9d37 15f6 bc37
000000e0: 15af 9437 b647 1238 dbd7 8637 c137 f738
000000f0: 44c0 1938 076a 6b38 8010 a138 a23b 2637
00000100: 127c f036 56b2 7536 8a3e b139 37b1 6b38
00000110: 0bcd be38 02bd c736 a8e8 3737 8a5e 9738
00000120: dbf1 ca38 e59b 9139 7175 1b37 378f 0a38
00000130: fcde 5339 54ea 1f38 70ed 8938 4e0c 2538
00000140: f7a1 fe37 fe72 6236 3c51 aa39 b6cf cf38
00000150: 38cb c036 d2fa b437 4df9 b636 efdb 7338
00000160: 4de4 1839 353e 2239 b31e 0438 f471 f137
00000170: ed2d 5739 de15 f337 5094 0639 8ce0 5636
00000180: 2ebf fd38 f9a0 9637 be43 ab38 9e24 c836
00000190: d00d ac37 4015 8638 4c1a fa38 1be3 e536
000001a0: 6095 a837 662b cf38 a14b 0d38 9920 a336
000001b0: 3c27 fa36 ca03 b639 fc28 8f37 1bdf 343a
000001c0: 9651 0e37 01d8 bd39 ee85 3437 073b 5838
000001d0: b8a4 3a38 2417 4238 4947 1938 480f 8236
000001e0: 9aa1 c737 7ed0 6b39 343e f437 790d 9e37
000001f0: 558c 9d38 b5f2 6639 79de a137 dff8 cc38
00000200: 11e7 ab36 6f40 bb39 6d68 1b39 91bd 6638
00000210: a74d da37 09eb 2e38 7775 4039 fb3c 2239
00000220: 8729 4437 04d4 d339 5522 6138 5eb7 d337
00000230: aba4 2738 da9f 1c38 2d4e 3539 dce5 e539
00000240: 7d00 0f39 004c f839 7c39 ce38 fb15 253a
00000250: 0d0c 0b38 491c 4a38 e7ba 0439 6949 c137
00000260: 5c49 8238 1f6b 9638 c7d5 2239 7642 0f39
00000270: eae2 1b39 c16f 343a d91e a537 3241 af39
00000280: 4bb2 2839 5c6c 0c39 e204 9038 76d7 8338
00000290: 2c7e 033a 6b56 ac38 a4da 4d38 9b01 fb38
000002a0: 0b9c 013a 4449 2239 5bcc d339 4ddd 0d39
000002b0: 2c27 0739 404c 9037 3ca3 0339 14af ba38
000002c0: 8870 db38 b184 5938 5259 c937 b5b2 0638
000002d0: 9046 bc39 c76e 6d39 5ae3 4638 5b79 8239
000002e0: 4f07 b139 e3cf 4038 fb46 2839 6adc 6039
000002f0: 8dc5 ed38 2ad9 9938 f664 5239 4100 0338
00000300: a831 9738 715e 6538 c21a d938 e0ee b439
00000310: de10 9938 035d ec37 2ed3 a637 c652 4f39
00000320: 10e0 2e39 8440 5939 0755 6e38 c256 c039
00000330: ee55 e238 f189 a837 46f3 1d39 3b1b 2439
00000340: 9bc1 cf39 1f96 eb38 efe0 ec38 3802 cf37
00000350: 18ca b938 bb9d 1238 a6ed e538 b69b 4b38
00000360: 0008 a938 f1d6 5039 e100 7c38 4acd 8538
00000370: 2a8f 9538 6f90 2b37 c516 9139 f5de ac36
00000380: 3c05 7439 8e97 4938 cb6a db38 3ccc c237
00000390: d41d 253a 84b9 0139 88cc 1339 4dc4 ee38
000003a0: 84bd 2b39 382e 4138 7f17 7d38 24fa cf37
000003b0: 935b 2139 537d da39 55a7 0638 4008 0e3a
000003c0: b883 3a39 5eaa b638 f016 de37 5a29 b937
000003d0: 4903 0539 9fb2 2939 bce7 d137 d96a 5639
000003e0: 3702 5339 2076 0e39 ddd6 0738 f549 6139
000003f0: 389d fe38 f6f6 143a 259c 0138 f8a8 fa37
