ALTEGRAD/ALTEGRAD_lab_7_DLForSetsAndGraphGeneration_2024/code/model_deepsets.pth.tar (torch, 123362 bytes, 12 tensors)

embedding.weight f4 [11, 128]
-0.06801092 -0.24109252 -0.07313689 -1.284309 0.81570023 1.42792 1.3253306 0.40422732
-1.5301945 -0.00012535194 0.71239966 -0.5908204 0.9692255 -1.9113675 1.1092455 -1.7941011
0.120242834 1.5408155 0.6165755 -0.21844362 1.8567836 -1.4924438 0.2778005 0.98513955
1.0440303 -1.0700096 1.2484131 -0.3160608 -0.4572109 -1.1961296 -0.50903213 0.45086616
0.98689824 0.9800278 -2.253075 1.2627403 -0.008721344 -0.9726315 -0.70851713 2.357469
-0.9222906 0.46517524 1.8385469 -0.5909019 0.5010476 -0.1630056 -0.66162974 -0.09607082
-1.2704678 -0.62835974 -1.150497 -1.9719535 0.23250212 -0.12652871 0.32257035 0.1543198
0.6492813 -0.22393376 -1.9224128 2.1847534 -0.5301592 -0.11859571 1.4497073 -1.8953226
-0.5341633 -1.0378551 0.7984538 -0.23277661 0.17590167 -1.9220895 -0.6776104 0.15900934
0.17265578 0.31818014 2.9636927 1.1170285 0.76963633 -1.6532826 -2.4478474 0.19537243
-1.3994045 0.8880594 -1.754495 -0.7268169 -2.5499446 -0.26512524 -0.5935759 -0.5467217
-1.1321346 0.017932702 0.23750518 1.2218869 -1.2441499 1.2564496 -1.6571051 -0.062223032
-0.408037 -1.0203055 -2.2816658 -1.5692707 0.10875091 0.82445645 -2.4830413 -0.99364924
1.4978441 -0.75795287 -0.6209007 0.7679386 1.4605527 -1.7275817 -0.49935362 -1.5434734
-0.7936054 -1.3683302 1.1686575 -1.022642 -0.021394903 0.05371019 0.60956115 0.26240492
0.2827595 0.01488413 -2.5633605 -0.29480994 -1.800542 1.0249753 -1.1005415 -1.3151231
-1.8414506 1.8950849 -0.99106884 -0.8871637 1.7355232 0.81964093 0.6442317 -1.3140669
0.18612792 -0.5592036 2.2466638 0.060066693 0.17535445 -0.84301174 1.208142 -0.5887271
0.12184498 -0.9166229 0.15585585 2.3640292 -0.12542054 1.3054903 1.91496 -0.43412405
0.16687675 0.2494056 -1.1060039 0.8240153 -0.4209053 -0.6227447 0.845634 -0.37276354
-0.027027585 0.3001992 -1.2150314 -1.6507443 0.40648386 -0.23778144 0.28924343 -0.018328179
-0.60011804 -2.4495656 -1.0429423 0.8241951 0.54478437 0.63166255 0.15604793 -0.46756324
0.25699735 -0.42338553 -0.7366025 -0.69202876 0.009173321 -0.096557066 1.5611272 0.9836983
0.35501623 -0.6278374 1.0979478 0.6367228 0.035931088 1.4787319 -0.14644954 -1.025181
1.0431161 -0.017911037 -0.27682218 -0.7562751 -0.11306451 3.4481595 0.03739972 -0.56217456
-0.98306686 -0.7491577 0.18319035 -0.8057635 2.1135247 -0.038584616 -0.45824963 -1.126459
0.9271251 0.579846 0.5078585 0.53303194 -0.2895402 -0.20955293 -1.06809 -0.6779181
-0.21394357 -0.21032132 1.2196438 0.46426648 0.2734258 1.7242805 -0.6024451 -0.72978896
-1.1195068 -0.6213265 0.23217824 -2.9215086 -0.30157802 0.20745258 -0.7789078 0.9526022
0.62889004 1.7937142 -0.4177778 0.24555987 0.68773144 0.9304431 -1.2110245 0.14119384
-2.6235068 1.8802801 -0.27191612 -0.8466785 0.75416607 1.1531454 2.085843 0.7538367
-1.9473395 2.1837077 0.62405837 1.2740887 -0.35576475 1.3606695 1.122326 -0.010204464
00000000: 4f49 8bbd f5e0 76be cbc8 95bd 3d64 a4bf
00000010: bbd1 503f 15c6 b63f 6fa4 a93f e2f6 ce3e
00000020: 6add c3bf e870 03b9 d35f 363f 0140 17bf
00000030: 2a1f 783f b1a7 f4bf c2fb 8d3f 1ba5 e5bf
00000040: e041 f63d 7139 c53f e4d7 1d3f afaf 5fbe
00000050: 16ab ed3f 6608 bfbf de3b 8e3e 1b32 7c3f
00000060: c9a2 853f 13f6 88bf 00cc 9f3f b9d2 a1be
00000070: 8c17 eabe c61a 99bf ee4f 02bf eed7 e63e
00000080: 5da5 7c3f 1ae3 7a3f 6132 10c0 79a1 a13f
00000090: f8e3 0ebc 61fe 78bf 6161 35bf c6e0 1640
000000a0: 3d1b 6cbf 732b ee3e 8155 eb3f 5945 17bf
000000b0: a844 003f f1ea 26be 9160 29bf c7c0 c4bd
000000c0: b09e a2bf 2fdc 20bf 7c43 93bf f968 fcbf
000000d0: 0915 6e3e be90 01be f127 a53e 0206 1e3e
000000e0: 4d37 263f e44e 65be 9f11 f6bf 00d3 0b40
000000f0: 83b8 07bf 4fe2 f2bd 0290 b93f ee99 f2bf
00000100: edbe 08bf 70d8 84bf 7867 4c3f fe5c 6ebe
00000110: 911f 343e 0707 f6bf e077 2dbf 58d3 223e
00000120: adcc 303e 82e8 a23e 24ad 3d40 cafa 8e3f
00000130: e306 453f c49e d3bf 88a9 1cc0 b60f 483e
00000140: b01f b3bf dc57 633f 4b93 e0bf ac10 3abf
00000150: 4b32 23c0 7fbe 87be 97f4 17bf f4f5 0bbf
00000160: c9e9 90bf 9ae7 923c 8f34 733e ca66 9c3f
00000170: 4e40 9fbf 57d3 a03f 051c d4bf 94dd 7ebd
00000180: 3aea d0be 5f99 82bf d006 12c0 dddd c8bf
00000190: ccb8 de3d 940f 533f 26ea 1ec0 cc5f 7ebf
000001a0: 5bb9 bf3f 3309 42bf 59f3 1ebf a097 443f
000001b0: 64f3 ba3f 6621 ddbf 47ab ffbe 8990 c5bf
000001c0: b929 4bbf 7225 afbf 9296 953f efe5 82bf
000001d0: 5d44 afbc 37ff 5b3d 330c 1c3f f059 863e
000001e0: dac5 903e 91dc 733c 190e 24c0 54f1 96be
000001f0: 2978 e6bf 6432 833f 8bde 8cbf f455 a8bf
00000200: a7b4 ebbf 2492 f23f b0b6 7dbf 291d 63bf
00000210: a025 de3f fdd3 513f 5eec 243f 5833 a8bf
00000220: 5198 3e3e f827 0fbf 57c9 0f40 7e08 763d
00000230: 1e90 333e 9ecf 57bf 66a4 9a3f d2b6 16bf
00000240: dc89 f93d cca7 6abf ad98 1f3e 414c 1740
00000250: 3e6e 00be 4e1a a73f 691d f53f 8245 debe
00000260: bde1 2a3e 2e64 7f3e 8991 8dbf abf2 523f
00000270: e680 d7be 326c 1fbf 787b 583f ddda bebe
00000280: f468 ddbc b6b3 993e 2686 9bbf 974b d3bf
00000290: a71e d03e fa7c 73be b717 943e fa24 96bc
000002a0: 56a1 19bf afc5 1cc0 227f 85bf 73fe 523f
000002b0: fd76 0b3f a3b4 213f 07cb 1f3e 7364 efbe
000002c0: 2895 833e fdc5 d8be fb91 3cbf cc28 31bf
000002d0: b24b 163c b6bf c5bd 04d3 c73f a7d3 7b3f
000002e0: b0c4 b53e f4b9 20bf 8e89 8c3f 4400 233f
000002f0: 7a2c 133d 1647 bd3f def6 15be 2239 83bf
00000300: d484 853f 2bba 92bc a3bb 8dbe 3f9b 41bf
00000310: 5e8e e7bd a5ae 5c40 7330 193d acea 0fbf
00000320: 45aa 7bbf cdc8 3fbf 4096 3b3e 8446 4ebf
00000330: fd43 0740 e70a 1ebd b29f eabe cf2f 90bf
00000340: 1258 6d3f ca70 143f 0403 023f c874 083f
00000350: 9d3e 94be 0b95 56be 2cb7 88bf 0a8c 2dbf
00000360: 0614 5bbe 795e 57be 4a1d 9c3f 56b4 ed3e
00000370: 77fe 8b3e 39b5 dc3f d839 1abf 73d3 3abf
00000380: 004c 8fbf 410f 1fbf 22c0 6d3e fff9 3ac0
00000390: 6f68 9abe 736e 543e 8066 47bf bddd 733f
000003a0: f0fe 203f 6d98 e53f f9e6 d5be 0c74 7b3e
000003b0: 2b0f 303f 8531 6e3f da02 9bbf 1e95 103e
000003c0: 89e7 27c0 05ad f03f 9738 8bbe ecbf 58bf
000003d0: 0711 413f 459a 933f 747e 0540 71fb 403f
000003e0: 6c42 f9bf dec1 0b40 4ac2 1f3f 5715 a33f
000003f0: cc26 b6be 6b2a ae3f 61a8 8f3f a030 27bc

fc1.weight f4 [64, 128]
-0.1577047 0.066582106 0.122423925 0.029013792 0.037841648 0.12479133 0.1353625 -0.08844238
0.11161485 -0.11770734 -0.04978088 -0.064126775 -0.12333598 0.005843187 0.16540137 0.057314686
0.16918059 -0.10323414 -0.10066281 0.0025737784 -0.25455496 0.02683122 -0.082307786 -0.045539074
-0.12665795 -0.020432726 -0.20435882 -0.016793583 0.075942166 -0.009384232 0.15397647 0.08219403
0.060754847 0.02591359 -0.034959637 -0.038774785 0.25070056 0.019026633 0.03587718 -0.114968926
-0.079511486 -0.0658172 -0.13425325 -0.05235581 -0.15988135 0.13435793 0.018903717 -0.18227735
-0.0832667 0.08551929 0.07263912 0.085881755 -0.00947595 -0.14617293 0.15367654 0.10109567
-0.058054462 -0.09254104 0.24068007 -0.009552132 0.024869699 0.08394898 -0.018149279 -0.034570653
-0.12039391 -0.062274728 -0.12469817 0.0059349122 -0.12930611 0.26943883 0.16149572 0.1924513
0.10314647 -0.19888319 -0.005987932 -0.12256842 -0.0046668034 0.17493355 -0.11468729 0.0010062652
0.04650647 0.08500491 -0.035571836 0.24970753 -0.044802587 -0.018612236 -0.1114767 -0.038531546
0.10747349 -0.0069306903 -0.10786126 -0.06428851 0.14995317 -0.15933536 -0.040670022 0.092799194
-0.04494815 0.15740217 -0.001539263 0.08383256 -0.017133825 -0.051909078 0.11230658 0.23605604
0.120897226 0.37276056 -0.09986093 0.05580338 -0.007520435 0.03455114 -0.068980955 -0.040155366
0.08828565 0.045402672 -0.0131404735 0.037312035 -0.19778854 -0.03739837 0.044483554 -0.09020656
-0.053592276 0.1321422 0.100670226 0.069033526 0.17210628 0.008005007 0.14343499 -0.016560407
0.30242795 -0.08591927 0.044803165 0.09717656 -0.15371753 -0.089245394 0.13545224 -0.2154792
0.1277243 0.0056679654 -0.0703083 -0.10759691 -0.07047138 0.118171155 -0.050514307 0.21797682
-0.015267129 0.08659415 0.049890406 -0.27394024 0.04657323 -0.0110197095 0.045193445 -0.17071277
0.13085106 0.11310905 -0.11245175 -0.25187978 0.36028767 0.2871124 0.10350848 0.03690141
0.11508446 0.08546927 0.13153696 -0.0531012 0.070479654 0.08401083 -0.01031981 -0.122545145
0.10870312 0.0080429455 0.07590021 0.047683783 0.0050158184 0.038188778 -0.106728956 0.09616519
-0.15648018 0.052672863 0.27996144 0.00090015674 0.048365816 -0.06659138 -0.25055456 -0.016569883
-0.20885423 -0.13955574 0.119133465 -0.18539505 -0.041819982 -0.0052992273 -0.11818597 0.004398031
-0.08333794 -0.113427736 -0.28135964 0.008005901 -0.24051632 -0.05934129 0.060843732 0.059792902
-0.052676342 -0.0053339894 -0.101349674 -0.056814 -0.19418597 0.074312195 -0.051784035 0.033080995
0.078829266 0.004088397 -0.14259197 0.38434932 -0.12598684 0.0030086224 0.24088769 -0.08637204
0.11005368 -0.013467162 -0.06279426 0.05215721 0.17958528 -0.16114256 -0.22977535 -0.010674222
0.042095196 0.106607325 -0.058503255 0.22717899 -0.04448704 -0.17531048 0.109798424 0.21560995
0.08639914 0.07785957 0.09543651 0.05054875 -0.16818348 0.20297775 0.10347734 -0.035460353
-0.008395186 -0.047927417 -0.13741022 0.14563504 -0.15002841 -0.18841982 -0.022976069 -0.09473193
0.097688444 0.14565673 0.02095084 -0.06369158 0.17002968 -0.06709624 0.06955628 0.12283648
00000000: 577d 21be 335c 883d 65b9 fa3d 55ae ed3c
00000010: d8ff 1a3d 9992 ff3d 789c 0a3e 4721 b5bd
00000020: 5496 e43d 8c10 f1bd 09e7 4bbd e654 83bd
00000030: 9397 fcbd 3578 bf3b fa5e 293e cec2 6a3d
00000040: ad3d 2d3e 6c6c d3bd 4e28 cebd d6ac 283b
00000050: 0755 82be 26cd db3c fc90 a8bd 2e87 3abd
00000060: 9fb2 01be 8862 a7bc 7043 51be b292 89bc
00000070: 9187 9b3d 52c0 19bc 02ac 1d3e 5855 a83d
00000080: 13da 783d bd48 d43c d631 0fbd 4fd2 1ebd
00000090: d35b 803e bedd 9b3c f3f3 123d d474 ebbd
000000a0: ebd6 a2bd 2bcb 86bd af79 09be 0c73 56bd
000000b0: f0b7 23be 2095 093e f8db 9a3c eaa6 3abe
000000c0: bb87 aabd bd24 af3d d2c3 943d c6e2 af3d
000000d0: 0441 1bbc 5bae 15be 625d 1d3e 3f0b cf3d
000000e0: 84ca 6dbd 2886 bdbd d674 763e 8c80 1cbc
000000f0: 8abb cb3c 71ed ab3d ccad 94bc f599 0dbd
00000100: 1591 f6bd c913 7fbd c161 ffbd a779 c23b
00000110: d268 04be e3f3 893e 225f 253e f411 453e
00000120: 753e d33d 09a8 4bbe 6a36 c4bb 2705 fbbd
00000130: fceb 98bb c821 333e 2be1 eabd a8e4 833a
00000140: 917d 3e3d 0e17 ae3d c6b3 11bd 55b3 7f3e
00000150: eb82 37bd b078 98bc e54d e4bd 41d3 1dbd
00000160: 101b dc3d d81a e3bb 5de6 dcbd b2a9 83bd
00000170: 538d 193e cf28 23be 9c95 26bd 810d be3d
00000180: 8d1b 38bd 092e 213e 18c1 c9ba 68b0 ab3d
00000190: 3c5c 8cbc 9d9e 54bd fe00 e63d adb8 713e
000001a0: f798 f73d 79da be3e e383 ccbd 1692 643d
000001b0: fb6d f6bb 7f85 0d3d e345 8dbd f479 24bd
000001c0: 1bcf b43d 27f8 393d 244b 57bc 81d4 183d
000001d0: 1489 4abe 092f 19bd 6334 363d 38be b8bd
000001e0: 9383 5bbd 4950 073e 312c ce3d 7361 8d3d
000001f0: a13c 303e 6f27 033c 9fe0 123e b1a9 87bc
00000200: d6d7 9a3e 71f6 afbd 8683 373d 8104 c73d
00000210: 2168 1dbe 4ac6 b6bd feb3 0a3e 94a6 5cbe
00000220: 29ca 023e 57ba b93b ccfd 8fbd c55b dcbd
00000230: 4d53 90bd b803 f23d 17e8 4ebd 5135 5f3e
00000240: fb22 7abc 4658 b13d e259 4c3d e541 8cbe
00000250: 92c3 3e3d 038c 34bc c31c 393d 54cf 2ebe
00000260: d2fd 053e b8a5 e73d 1a4d e6bd 63f6 80be
00000270: a077 b83e 6600 933e 41fc d33d ef25 173d
00000280: 67b1 eb3d 830a af3d a0b1 063e a580 59bd
00000290: a357 903d df0d ac3d 6c14 29bc f3f8 fabd
000002a0: be9f de3d 8fc6 033c 9271 9b3d 1250 433d
000002b0: bc5b a43b d66b 1c3d b694 dabd 41f2 c43d
000002c0: 573c 20be 80bf 573d 1b57 8f3e 7ff8 6b3a
000002d0: 3c1b 463d 1061 88bd b048 80be 90bd 87bc
000002e0: e2dd 55be b3e7 0ebe 3ffc f33d 33d8 3dbe
000002f0: 6e4b 2bbd 24a5 adbb 7c0b f2bd 5c1d 903b
00000300: 15ad aabd cd4c e8bd 5f0e 90be 2f2b 033c
00000310: e949 76be da0f 73bd 4737 793d 67e9 743d
00000320: 26c3 57bd bfc8 aebb 6b90 cfbd ccb5 68bd
00000330: b0d8 46be fe30 983d 7f1b 54bd f07f 073d
00000340: 3d71 a13d f6f7 853b a103 12be 6fc9 c43e
00000350: b202 01be 4f2c 453b 43ab 763e d3e3 b0bd
00000360: d363 e13d 5fa5 5cbc 479a 80bd cca2 553d
00000370: 34e5 373e 8e02 25be 3b4a 6bbe efe2 2ebc
00000380: 036c 2c3d f154 da3d 1ca1 6fbd 9ca1 683e
00000390: 0b38 36bd 9784 33be ffdd e03d dbc8 5c3e
000003a0: 08f2 b03d d774 9f3d 3874 c33d 350c 4f3d
000003b0: 4a38 2cbe 66d9 4f3e edeb d33d e03e 11bd
000003c0: f68b 09bc 8a4f 44bd 44b5 0cbe 5a21 153e
000003d0: 0ca1 19be 20f1 40be 4f38 bcbc d002 c2bd
000003e0: e110 c83d 0a27 153e 19a1 ab3c bb70 82bd
000003f0: 431c 2e3e c169 89bd 8673 8e3d b191 fb3d

fc1.bias f4 [64]
-0.021709304 -0.0054321606 -0.14677383 0.09308675 -0.15921709 0.10998146 0.13291672 -0.13220076
0.15092386 -0.059157453 -0.13258243 0.1658552 -0.042843025 -0.1364626 0.05811241 -0.008771329
0.1144707 -0.13650385 -0.01175329 0.06589436 0.09039931 -0.105828755 -0.17129593 -0.055189684
-0.049243182 0.032809436 -0.07043205 0.12563273 -0.12122666 -0.027427224 -0.09287184 -0.12776121
0.08099018 2.0805353e-05 0.0047733355 -0.05264443 0.07680682 -0.07839814 -0.071474865 -0.062921986
0.015417133 -0.09635931 -0.024008669 0.086628065 -0.057736594 0.07841393 -0.0048158397 0.061943576
-0.17836334 0.10938446 0.02670503 0.11096362 -0.02525604 -0.0680885 -0.131266 0.12230832
0.079172336 -0.16614746 -0.07094884 -0.016561441 0.102764 -0.081215516 -0.04060689 0.0033495252
00000000: b6d7 b1bc 4400 b2bb e14b 16be 44a4 be3d
00000010: ce09 23be f63d e13d 521b 083e a35f 07be
00000020: c98b 1a3e 164f 72bd b0c3 07be f2d5 293e
00000030: 2b7c 2fbd dabc 0bbe 4707 6e3d 9fb5 0fbc
00000040: 9d6f ea3d aac7 0bbe df90 40bc 9ff3 863d
00000050: 4623 b93d bfbc d8bd 3368 2fbe 940e 62bd
00000060: 38b3 49bd 3063 063d ae3e 90bd dea5 003e
00000070: af45 f8bd 0faf e0bc 9733 bebd d6d3 02be
00000080: 2ede a53d 2887 ae37 a469 9c3b b0a1 57bd
00000090: e54c 9d3d 348f a0bd 6a61 92bd 3edd 80bd
000000a0: 2598 7c3c 0858 c5bd d4ad c4bc 0e6a b13d
000000b0: 357d 6cbd 7c97 a03d 31ce 9dbb 8cb8 7d3d
000000c0: e1a4 36be f604 e03d 82c4 da3c e540 e33d
000000d0: c1e5 cebc fc71 8bbd 986a 06be c97c fa3d
000000e0: 1b25 a23d 8f22 2abe a04d 91bd dcab 87bc
000000f0: ef75 d23d 5254 a6bd 6953 26bd b583 5b3b

fc2.weight f4 [1, 64]
-0.13045135 0.25738153 -0.08052641 0.12392801 -0.15582779 0.15478574 0.0810833 -0.08687109
0.11332818 -0.19236682 -0.061548624 0.13681458 -0.15700635 -0.09833473 0.07911998 0.16719946
0.23481281 -0.17194818 -0.22450869 0.09069443 0.091082275 -0.12981392 -0.08524865 -0.12354049
-0.20340899 0.081651084 -0.11228801 0.038051527 -0.12245632 -0.106699854 -0.11237224 0.1782504
0.07081438 0.17270283 -0.12816729 -0.15426062 -0.09557132 -0.20856957 -0.21332812 -0.11870354
0.124977775 -0.14350355 -0.14742269 0.07286145 -0.19222161 0.19824943 -0.13693623 0.12245838
-0.20141827 0.18308653 0.17176795 0.09744367 -0.21189924 -0.16389462 -0.123328894 0.1153425
0.22643094 -0.17391825 -0.065181546 -0.16465996 0.12565035 -0.20857666 -0.17774276 -0.09838133
00000000: 0a95 05be 83c7 833e 08eb a4bd f8cd fd3d
00000010: 5291 1fbe 2780 1e3e 000f a63d 78e9 b1bd
00000020: 9b18 e83d cffb 44be 691a 7cbd 1f19 0c3e
00000030: 46c6 20be b863 c9bd a809 a23d 5636 2b3e
00000040: c572 703e 2f13 30be 9be5 65be 00be b93d
00000050: 5889 ba3d f1ed 04be d896 aebd cc02 fdbd
00000060: 724a 50be af38 a73d 42f7 e5bd ebdb 1b3d
00000070: 61ca fabd 7485 dabd 6b23 e6bd 4687 363e
00000080: 2107 913d 03d9 303e 493e 03be 7ff6 1dbe
00000090: e5ba c3bd 4393 55be b072 5abe d71a f3bd
000000a0: 59f4 ff3d 98f2 12be f9f5 16be 6238 953d
000000b0: bed5 44be e601 4b3e 0339 0cbe 76cb fa3d
000000c0: 9740 4ebe 097b 3b3e f0e3 2f3e 8c90 c73d
000000d0: 1dfc 58be fed3 27be dc93 fcbd b038 ec3d
000000e0: 83dd 673e a017 32be e77d 85bd 9f9c 28be
000000f0: 7caa 003e 1f95 55be 3302 36be 277c c9bd

exp_avg f4 [11, 128]
0.00011992343 9.7173805e-05 -0.00015337544 -1.7082682e-05 -3.1362824e-06 -2.7168115e-05 -6.517019e-05 6.72527e-05
-9.940524e-05 0.00011606528 -1.1354839e-05 3.7906608e-05 0.00010595451 -9.6034164e-05 8.062114e-05 -4.6635236e-05
-0.00021018919 -4.9883784e-05 6.108007e-05 -1.0716737e-05 1.8212804e-05 -9.693469e-05 0.00015235826 1.9904648e-05
0.000115463 0.00010414777 -1.25454135e-05 -0.00013872748 4.4497592e-05 6.802608e-05 5.985343e-05 -0.00013053964
-8.6252796e-05 0.00011627404 -9.0479734e-05 8.033294e-06 6.690285e-05 -4.911494e-05 -1.1732763e-05 1.9003532e-05
-2.7384634e-05 -1.1920595e-06 8.6493885e-05 -6.935709e-06 0.000103332175 -0.00011622499 -4.8167985e-05 5.2760646e-05
-6.1257956e-06 5.223714e-06 6.633018e-05 -0.00015511324 0.00017513901 -3.2231692e-05 -0.00013101027 -3.7802092e-06
8.885195e-05 6.192647e-05 -9.990811e-06 1.591352e-05 6.604717e-05 7.176953e-05 4.936733e-05 -2.7366625e-05
6.397229e-05 9.393388e-05 2.508266e-05 0.00014088658 -0.0001007201 -2.1421956e-05 -0.00014490452 6.8880836e-05
-3.694166e-05 -5.2486655e-05 7.457178e-06 0.00016737015 -6.103984e-06 -8.033016e-05 -6.9958114e-05 5.287292e-05
-6.777697e-05 -5.993119e-05 1.6629348e-05 0.00011953947 -1.9126017e-05 -0.00012445182 8.605836e-05 0.00015143424
-0.00011309274 -9.389292e-05 9.704698e-05 -7.3916303e-06 -5.254201e-05 3.829942e-05 -5.2729742e-06 -0.0001384303
-0.00011499778 -8.1181824e-05 3.0055584e-05 -4.4733293e-05 -0.0001099683 3.9105907e-05 -0.00011055392 -1.7348053e-05
3.515323e-05 0.00010131875 0.0001232314 4.645492e-07 -7.195874e-06 -3.8106795e-05 0.00011581476 8.103708e-05
-7.079974e-05 -1.7295919e-05 -4.9981732e-05 -0.00011935762 -4.616018e-06 3.321794e-05 0.00013214289 0.00014692514
-4.1452004e-05 8.159005e-06 -0.00011547374 -9.824245e-05 -1.4596172e-05 0.00013514319 5.6895205e-05 -8.864207e-05
0.0001621737 0.00012348361 -0.00018562234 1.2901509e-05 -1.6165233e-05 -6.3830135e-05 -0.00010910031 7.928093e-05
-0.00012353469 0.00016457087 -2.0567273e-05 6.97159e-05 0.00012766889 -0.000107593085 7.737885e-05 -4.442857e-05
-0.00027584698 -8.7657354e-05 6.660034e-05 -3.7784641e-06 -1.9299155e-06 -0.00011366555 0.00019729217 3.216921e-05
0.00012048542 0.00014254531 -3.4386987e-05 -0.00016548975 8.471753e-05 0.000101472615 9.36298e-05 -0.00017790962
-0.00012954322 0.00013298605 -8.866172e-05 1.4676114e-05 8.879289e-05 -3.3635875e-05 -1.3265349e-05 -1.4070481e-05
-2.5580686e-05 5.017427e-06 7.659876e-05 -4.166967e-06 0.0001313386 -0.00014782393 -6.35894e-05 6.804107e-05
2.1297326e-05 -3.081715e-07 9.414604e-05 -0.00018142255 0.00022079067 -5.674832e-05 -0.00019098715 -8.533606e-06
0.00010191639 7.159329e-05 -1.5353532e-06 2.4560218e-06 0.000107766195 8.3287814e-05 4.758817e-05 -3.9795577e-06
0.000100850375 0.00013110593 1.6267953e-05 0.0001879255 -0.00012677144 -1.7621677e-06 -0.00018988899 7.515965e-05
-4.9749528e-05 -7.1504975e-05 -2.9657018e-05 0.00020123586 -2.394523e-05 -9.297676e-05 -6.3247426e-05 6.274904e-05
-7.2217365e-05 -8.311829e-05 4.125815e-05 0.00016513483 3.6980605e-06 -0.00015309932 0.00013521235 0.00020756868
-0.00013452306 -0.00012220173 0.00011042073 -4.2240656e-05 -5.9143196e-05 3.6669997e-05 2.0410323e-05 -0.00018146141
-0.00014429099 -8.9750974e-05 7.068694e-05 -4.5342986e-05 -0.00014283988 4.028256e-05 -0.00011915375 -2.1487585e-05
2.6092623e-05 0.0001353315 0.00017594127 -1.1284871e-05 -1.3464781e-05 -1.5398655e-05 0.00015914574 0.0001330559
-7.184256e-05 -1.1727765e-05 -6.981386e-05 -0.00013249424 -1.0879221e-05 2.3497782e-05 0.00016323292 0.00018166789
-8.477759e-05 -1.9007957e-05 -0.00012652394 -0.00010873437 3.6612312e-06 0.00016786523 8.364662e-05 -0.00010606387
00000000: 677f fb38 cac9 cb38 68d3 20b9 c84c 8fb7
00000010: ec78 52b6 15e7 e3b7 fbab 88b8 050a 8d38
00000020: c877 d0b8 1368 f338 aa80 3eb7 e9fd 1e38
00000030: e533 de38 f365 c9b8 2513 a938 349a 43b8
00000040: 3b66 5cb9 4e3a 51b8 1d18 8038 09cc 33b7
00000050: b3c7 9837 6a49 cbb8 5cc2 1f39 e8f8 a637
00000060: ba24 f238 e969 da38 247a 52b7 6077 11b9
00000070: eda2 3a38 39a9 8e38 220b 7b38 78e1 08b9
00000080: 9ee2 b4b8 26d8 f338 f0bf bdb8 bcc6 0637
00000090: 324e 8c38 c400 4eb8 d5d7 44b7 c669 9f37
000000a0: 0eb8 e5b7 dafe 9fb5 0d64 b538 49b9 e8b6
000000b0: 0ab4 d838 d1bd f3b8 fb07 4ab8 504b 5d38
000000c0: 2f8c cdb6 5d47 af36 bf1a 8b38 e5a5 22b9
000000d0: 85a5 3739 8430 07b8 cd5f 09b9 80af 7db6
000000e0: 0756 ba38 85de 8138 359e 27b7 067e 8537
000000f0: ce82 8a38 f982 9638 c40f 4f38 6191 e5b7
00000100: dd28 8638 5efe c438 9a68 d237 f4ba 1339
00000110: b139 d3b8 4db3 b3b7 83f1 17b9 1e74 9038
00000120: cef1 1ab8 1e25 5cb8 ac38 fa36 1580 2f39
00000130: d3d0 ccb6 ed76 a8b8 7ab6 92b8 dec3 5d38
00000140: 7c23 8eb8 a05e 7bb8 417f 8b37 44b1 fa38
00000150: cf70 a0b7 487f 02b9 3b7a b438 52ca 1e39
00000160: 342c edb8 61e8 c4b8 b385 cb38 9f05 f8b6
00000170: 8e60 5cb8 b0a3 2038 81ee b0b6 9a27 11b9
00000180: f72a f1b8 2940 aab8 e01f fc37 02a0 3bb8
00000190: c89e e6b8 a605 2438 2fd9 e7b8 a986 91b7
000001a0: 7e71 1338 177b d438 ad37 0139 2867 f934
000001b0: 1674 f1b6 dcd4 1fb8 93e1 f238 73f2 a938
000001c0: 527a 94b8 b416 91b7 7aa3 51b8 a24f fab8
000001d0: 4be3 9ab6 7e53 0b38 d68f 0a39 eb0f 1a39
000001e0: c0dc 2db8 a9e2 0837 7e2a f2b8 8407 ceb8
000001f0: 15e2 74b7 39b5 0d39 c3a2 6e38 59e5 b9b8
00000200: 2c0d 2a39 617b 0139 9ea3 42b9 8f73 5837
00000210: 939a 87b7 8bdc 85b8 c8cc e4b8 a043 a638
00000220: 1789 01b9 a890 2c39 e287 acb7 7034 9238
00000230: dbde 0539 99a3 e1b8 7446 a238 d058 3ab8
00000240: 8e9f 90b9 afd4 b7b8 c9ab 8b38 8591 7db6
00000250: b283 01b6 ba5f eeb8 37e0 4e39 6ded 0638
00000260: 1ead fc38 3778 1539 bf3a 10b8 5187 2db9
00000270: 61aa b138 b2cd d438 1e5b c438 408d 3ab9
00000280: fed5 07b9 2c72 0b39 e6ef b9b8 6e39 7637
00000290: 5236 ba38 3f14 0db8 3d8e 5eb7 4110 6cb7
000002a0: 1b96 d6b7 5f5b a836 a5a3 a038 f9d1 8bb6
000002b0: f0b7 0939 2f01 1bb9 4d5b 85b8 45b1 8e38
000002c0: a9a7 b237 c572 a5b4 4570 c538 3f3c 3eb9
000002d0: 0b84 6739 0b05 6eb8 b943 48b9 8f2b 0fb7
000002e0: f2bb d538 5b24 9638 5612 ceb5 22d2 2436
000002f0: 8900 e238 ceaa ae38 6999 4738 2488 85b6
00000300: a27f d338 7b79 0939 2a77 8837 de0d 4539
00000310: f3ed 04b9 9f83 ecb5 f01c 47b9 089f 9d38
00000320: 26aa 50b8 f1f4 95b8 f6c7 f8b7 d702 5339
00000330: fddd c8b7 85fc c2b8 b4a3 84b8 2298 8338
00000340: 6773 97b8 cb4f aeb8 9a0c 2d38 0b28 2d39
00000350: 322c 7836 4989 20b9 cac7 0d39 cba6 5939
00000360: c20e 0db9 4723 00b9 ae91 e738 8f2b 31b8
00000370: 8610 78b8 1cce 1938 d636 ab37 ad46 3eb9
00000380: d14c 17b9 b038 bcb8 c33d 9438 a92e 3eb8
00000390: 4ac7 15b9 12f5 2838 2fe2 f9b8 3d40 b4b7
000003a0: 7be1 da37 c6e7 0d39 e07c 3839 2754 3db7
000003b0: cbe6 61b7 5c2c 81b7 5ce0 2639 ec84 0b39
000003c0: 2eaa 96b8 5ec2 44b7 0869 92b8 27ee 0ab9
000003d0: e685 36b7 1a1d c537 8129 2b39 1a7e 3e39
000003e0: 9fca b1b8 4773 9fb7 83ab 04b9 5208 e4b8
000003f0: 79b3 7536 fb04 3039 706b af38 9b6e deb8

exp_avg_sq f4 [11, 128]
7.312935e-07 4.4358487e-07 1.1998211e-06 1.821538e-08 3.506392e-10 2.5436423e-08 1.8436515e-07 2.0928906e-07
4.7364856e-07 6.66885e-07 2.862221e-09 5.44895e-08 5.346162e-07 4.426232e-07 3.1015108e-07 1.5110805e-07
2.2858144e-06 1.0825142e-07 2.2307167e-07 2.673002e-09 2.312368e-08 4.7598746e-07 1.1642625e-06 4.1744283e-08
6.489668e-07 5.1285224e-07 9.382939e-09 9.812129e-07 1.7410126e-07 2.4250377e-07 1.9718952e-07 7.9831756e-07
3.5220646e-07 6.603938e-07 3.8837902e-07 4.9477555e-09 2.2571385e-07 1.1376486e-07 1.3295168e-08 1.9168123e-08
3.54038e-08 7.0886214e-10 3.9640267e-07 4.432632e-09 5.707605e-07 6.4854805e-07 1.3253492e-07 1.1208375e-07
7.984801e-09 6.5921296e-10 1.8280438e-07 1.202308e-06 1.5893135e-06 4.7981516e-08 8.35864e-07 3.8219464e-10
3.9507546e-07 1.602449e-07 9.663234e-09 2.10538e-08 2.0007698e-07 2.2552521e-07 9.791871e-08 5.3712974e-08
2.3304214e-07 3.9926408e-07 2.3530692e-08 1.006337e-06 4.9161883e-07 3.504304e-08 1.0205029e-06 2.2374151e-07
7.324444e-08 1.3030798e-07 3.6891867e-09 1.3725146e-06 4.8980525e-10 3.1818752e-07 2.4121408e-07 1.3789386e-07
2.1510232e-07 1.55654e-07 7.4092177e-09 7.3850646e-07 3.96567e-08 7.5434355e-07 3.9725637e-07 1.1434078e-06
7.009441e-07 4.334126e-07 5.035403e-07 7.2601822e-09 1.15178025e-07 8.4650885e-08 1.938264e-09 9.561496e-07
6.798743e-07 2.8701496e-07 3.0358297e-08 7.494502e-08 6.543055e-07 6.636473e-08 5.918485e-07 2.2991742e-08
5.73278e-08 4.9838525e-07 7.553035e-07 1.0477939e-10 1.6741788e-09 8.381966e-08 6.2568785e-07 3.3271237e-07
2.299291e-07 4.2102346e-08 9.7023204e-08 8.187213e-07 1.1649545e-09 3.7967705e-08 8.3779577e-07 1.1506345e-06
8.8862244e-08 1.3897717e-09 6.230104e-07 4.8463545e-07 1.0822215e-08 9.0424254e-07 1.6145484e-07 3.730052e-07
8.719923e-07 4.6767443e-07 1.1481202e-06 5.7116454e-09 9.28181e-09 1.17632496e-07 3.7071024e-07 1.75992e-07
4.609924e-07 8.9906484e-07 7.2774933e-09 1.4697862e-07 4.8337955e-07 3.3919721e-07 1.6796615e-07 9.2031314e-08
2.6022105e-06 2.5806656e-07 1.7832977e-07 2.431751e-10 1.05054195e-10 3.9866114e-07 1.2853563e-06 6.084867e-08
4.3219254e-07 6.38634e-07 4.9021423e-08 8.8669793e-07 3.6510625e-07 3.7232567e-07 3.4363907e-07 1.0014415e-06
5.4139457e-07 5.3118083e-07 2.188827e-07 6.84549e-09 2.5596856e-07 2.9015856e-08 9.1656895e-09 1.3456447e-08
1.6946242e-08 1.9551942e-09 1.7680264e-07 5.0580434e-10 6.086446e-07 6.782925e-07 1.4913887e-07 1.2977492e-07
1.147891e-08 2.909706e-09 2.487913e-07 1.024947e-06 1.6390395e-06 1.0446864e-07 1.1916785e-06 1.4434108e-09
3.1948824e-07 1.314016e-07 2.8997177e-10 1.3465731e-09 3.862077e-07 1.9717744e-07 4.986942e-08 1.955068e-09
4.02925e-07 5.3229826e-07 3.5377123e-09 1.1659129e-06 5.195922e-07 7.5747825e-10 1.1477122e-06 1.5491543e-07
1.0609197e-07 1.5537802e-07 3.6313597e-08 1.2779941e-06 1.466862e-08 2.604372e-07 1.11331964e-07 1.1392469e-07
1.4958646e-07 1.9962175e-07 5.2170158e-08 9.345964e-07 1.7040888e-09 7.2923444e-07 6.3671826e-07 1.4399067e-06
6.4856897e-07 4.8422635e-07 4.2000724e-07 7.906101e-08 8.7027026e-08 5.0494897e-08 1.6127961e-08 1.1023883e-06
7.038267e-07 2.2013529e-07 1.5753383e-07 4.49441e-08 7.1082275e-07 3.7536147e-08 4.2027904e-07 2.0335486e-08
1.4869529e-08 5.891621e-07 1.03979e-06 4.05938e-09 2.1373248e-09 4.375945e-09 7.918961e-07 6.1424225e-07
1.576252e-07 1.838334e-08 1.3831338e-07 6.4483015e-07 2.5748448e-09 8.299077e-09 8.1670015e-07 1.1302441e-06
2.647809e-07 2.5258494e-08 4.5746413e-07 3.5907496e-07 1.1596643e-09 8.9779405e-07 2.436437e-07 3.3130038e-07
00000000: 1b4e 4435 d725 ee34 8a09 a135 0b78 9c32
00000010: 15c4 c02f 497f da32 e8f5 4534 f0b8 6034
00000020: c349 fe34 fd03 3335 b9b0 4431 d707 6a33
00000030: 8c82 0f35 aba1 ed34 d782 a634 4440 2234
00000040: fe65 1936 d977 e833 7985 6f34 f3af 3731
00000050: 83a1 c632 388b ff34 c143 9c35 534a 3333
00000060: a934 2e35 f0aa 0935 9a32 2132 38b2 8335
00000070: 97f0 3a34 7731 8234 0bbb 5334 f74b 5635
00000080: e316 bd34 eb45 3135 6882 d034 eb00 aa31
00000090: c05b 7234 e54e f433 c468 6432 26a7 a432
000000a0: e40e 1833 bdd9 4230 2bd1 d434 d84d 9831
000000b0: 5d36 1935 e217 2e35 ec4e 0e34 b1b2 f033
000000c0: 872d 0932 fd33 3530 e348 4434 fd5e a135
000000d0: 6550 d535 3c14 4e33 2360 6035 1d1d d22f
000000e0: c21a d434 c80f 2c34 5a03 2632 ccd9 b432
000000f0: bed4 5634 e627 7234 6147 d233 0ab2 6633
00000100: 233a 7a34 705a d634 8a20 ca32 7a11 8735
00000110: caf7 0335 3b82 1633 36f8 8835 993d 7034
00000120: 8f4a 9d33 c9ea 0b34 dc84 7d31 3e37 b835
00000130: fba2 0630 5cd3 aa34 3680 8134 fa0f 1434
00000140: e0f6 6634 d921 2734 2b94 fe31 c73d 4635
00000150: 0153 2a33 187e 4a35 8046 d534 3177 9935
00000160: 8328 3c35 c6af e834 072b 0735 3d75 f931
00000170: ca57 f733 51c9 b533 4d32 0531 0d55 8035
00000180: 9b80 3635 0917 9a34 4d63 0233 76f1 a033
00000190: 88a3 2f35 6584 8e33 85df 1e35 607f c532
000001a0: 9538 7633 c6c8 0535 10c0 4a35 8d69 e62e
000001b0: ee18 e630 5800 b433 f1f4 2735 a49f b234
000001c0: 6ee2 7634 05d4 3433 125b d033 19c6 5b35
000001d0: 311c a030 ef11 2333 e3e4 6035 806f 9a35
000001e0: 89d4 be33 3f02 bf30 f33c 2735 e517 0235
000001f0: 9bec 3932 13bb 7235 5e5c 2d34 7241 c834
00000200: db12 6a35 af14 fb34 1c19 9a35 2a40 c431
00000210: d575 1f32 269d fc33 0706 c734 50f8 3c34
00000220: 507e f734 4457 7135 820d fa31 2dd1 1d34
00000230: 97c1 0135 e91a b634 2f5a 3434 c0a2 c533
00000240: a3a1 2e36 668c 8a34 ea7a 3f34 daaf 852f
00000250: 4104 e72e 9207 d634 8284 ac35 e9ab 8233
00000260: 1708 e834 986e 2b35 a08b 5233 6b05 6e35
00000270: d203 c434 0de4 c734 657d b834 4569 8635
00000280: 5a54 1135 7896 0e35 0506 6b34 9135 eb31
00000290: 0d6c 8934 8b3e f932 2177 1d32 142e 6732
000002a0: 2e91 9132 245c 0631 24d7 3d34 d108 0b30
000002b0: bd61 2335 e813 3635 fb22 2034 4258 0b34
000002c0: c834 4532 17f4 4731 9e91 8534 e990 8935
000002d0: f8fc db35 3e58 e033 c3f1 9f35 8161 c630
000002e0: 2186 ab34 6617 0d34 e669 9f2f 5412 b930
000002f0: fb57 cf34 b9b7 5334 0230 5633 ec59 0631
00000300: 9751 d834 42e3 0e35 181c 7331 767c 9c35
00000310: 1b7a 0b35 cb36 5030 170b 9a35 d456 2634
00000320: add4 e333 fcd5 2634 39f7 1b33 8b87 ab35
00000330: 4601 7c32 37d2 8b34 6515 ef33 c3a6 f433
00000340: 039e 2034 9c57 5634 b211 6033 fae0 7a35
00000350: 4b35 ea30 9cc0 4335 f2ea 2a35 d142 c135
00000360: 5219 2e35 c8fb 0135 5b7d e134 40c8 a933
00000370: 9de3 ba33 badf 5833 c389 8a32 c6f5 9335
00000380: 9aee 3c35 545e 6c34 9226 2934 9008 4133
00000390: 5ecf 3e35 6e37 2133 b6a2 e134 35ae ae32
000003a0: e174 7f32 e926 1e35 ea8e 8b35 af7a 8b31
000003b0: 37e0 1231 385b 9631 b092 5435 68e2 2435
000003c0: af3f 2934 64e9 9d32 4b83 1434 6418 2d35
000003d0: 26f1 3031 ba93 0e32 353b 5b35 e4b2 9735
000003e0: 3627 8e34 04f8 d832 6499 f534 e3c6 c034
000003f0: 0f62 9f30 f0ff 7035 23ce 8234 94dd b134

exp_avg f4 [64, 128]
-4.5152497e-06 -9.3664705e-05 5.0426905e-05 4.0749663e-05 8.812752e-06 3.2840788e-05 4.16761e-05 -1.5734255e-05
0.000101327045 -6.412995e-05 1.3499612e-05 -1.2566201e-05 -6.715903e-05 7.338801e-05 1.8810391e-05 4.353331e-05
6.78815e-05 1.6733771e-05 -3.181381e-05 -4.552239e-05 -2.6581425e-05 7.1619497e-06 -8.921521e-05 3.9667968e-05
-2.0381878e-05 -4.4814256e-05 -4.1438674e-05 4.8716185e-05 1.912511e-05 -3.076138e-05 4.0514755e-05 6.7384135e-05
3.1966832e-05 -4.6996e-05 4.5098168e-05 6.2890445e-05 2.2898354e-05 5.248494e-05 -1.216942e-06 2.3660292e-05
-4.553766e-06 4.1548705e-05 -1.1859393e-05 -1.4883304e-05 5.0639565e-06 9.2465016e-05 -1.4225266e-05 8.813443e-06
-4.7460773e-05 -6.5434515e-06 -2.5640615e-05 0.000110855326 -3.1827763e-05 -4.8253813e-05 -6.93657e-06 8.916635e-06
-3.0602754e-05 -2.4522838e-05 1.20362265e-05 -4.9157698e-05 1.0772882e-05 -5.151955e-05 -3.878486e-05 4.240921e-05
-3.5188757e-05 -7.957709e-05 -1.2987332e-06 -2.837478e-05 7.1878935e-06 3.7491583e-05 5.745862e-05 4.1343387e-06
1.8521698e-05 -3.54868e-05 -3.98026e-06 -0.00015882282 -4.0358114e-05 6.284388e-05 7.0672126e-05 -1.8403765e-05
6.677632e-05 4.2434345e-05 -2.0206148e-06 2.7880392e-06 7.247392e-06 4.0027855e-05 2.690464e-05 -2.710982e-05
7.771467e-05 3.5007728e-05 -5.1195733e-05 -2.0242692e-06 8.699862e-05 -0.00011166575 -1.3457054e-05 7.028207e-05
3.777737e-05 6.551182e-05 -3.9468283e-05 9.355408e-05 1.6864607e-05 -3.426221e-05 6.0418988e-05 3.9834267e-05
9.910682e-06 -4.4147173e-06 -3.8459253e-05 5.826951e-06 2.424193e-05 1.0630302e-05 -4.8024263e-05 -1.9348572e-05
8.5199325e-05 -3.917145e-05 2.695534e-05 5.071524e-05 1.49444495e-05 -6.2889144e-06 -0.000110285844 -3.0225921e-05
-7.0465903e-06 -1.3385714e-05 0.00010872516 1.9044732e-05 3.333628e-05 -0.00016198083 4.205521e-07 6.7822904e-05
3.2982675e-06 4.6753834e-05 -2.854475e-06 1.5221895e-05 1.1983353e-05 -1.5646183e-05 2.9982313e-05 9.280647e-06
-2.3413451e-05 2.7028436e-05 -3.7896136e-06 8.62721e-06 8.32509e-06 -1.4356857e-05 4.9771737e-05 2.5782458e-05
-5.9191178e-05 1.589035e-05 1.0826837e-05 -9.862365e-06 -9.907921e-06 -5.7343954e-05 2.5277966e-06 1.6708916e-06
-3.3610486e-06 2.6013733e-05 -2.5569214e-05 -4.1445295e-05 -4.101716e-07 -9.778946e-06 2.0869933e-05 -1.7720744e-05
2.127328e-05 3.2923217e-05 -9.29455e-06 1.1084285e-05 3.4297882e-05 -5.9891577e-06 1.1860068e-05 -4.3222217e-06
-1.5169457e-05 -1.2332513e-05 9.889469e-06 -3.192944e-06 2.3832961e-05 -4.6407316e-05 -1.1124989e-05 7.562795e-06
2.5811129e-05 -8.752392e-06 2.2460787e-05 -4.591497e-06 3.077548e-05 -4.5191842e-05 -1.6863605e-06 2.1041284e-05
-5.5775076e-06 -3.3465454e-05 3.1149055e-05 2.0168953e-05 1.647933e-05 -6.5069994e-06 1.4002713e-05 -1.7458075e-05
-2.0310566e-05 5.0131424e-05 5.6291447e-06 5.943539e-05 -4.2056414e-05 3.207664e-05 -5.003364e-05 8.703821e-07
-6.489606e-06 -1.1481256e-05 3.8869753e-06 3.0337467e-05 -2.7886646e-05 -1.6599955e-05 -8.560142e-06 3.7322574e-05
-1.2785037e-05 3.836758e-07 1.0318296e-06 1.3486765e-06 -3.6780864e-05 -3.518827e-05 8.360424e-06 2.4343706e-05
1.029915e-05 -6.284515e-05 -2.1620399e-05 7.5880275e-06 -3.5011086e-05 -4.6099412e-05 -1.1628593e-05 -3.3283643e-05
-2.5060343e-05 5.9715007e-06 -2.9204668e-06 -7.0842666e-06 -7.389034e-06 -2.7001877e-06 2.7411907e-06 4.1016556e-06
6.2103536e-05 7.785681e-05 3.387028e-05 1.2534766e-05 -1.9114746e-06 1.2574736e-05 4.2430896e-05 3.9512026e-05
-2.7875738e-05 1.2782496e-05 -3.475727e-05 -9.795862e-07 -4.2123218e-05 -4.6860946e-06 7.6433826e-05 5.5467344e-06
-2.5571217e-05 3.1794065e-05 -4.1246676e-06 -1.630501e-05 -3.220894e-05 3.057846e-05 6.671332e-05 -3.2497075e-05
00000000: b381 97b6 db6d c4b8 7a81 5338 9eea 2a38
00000010: 7bda 1337 87be 0938 5fcd 2e38 0efd 83b7
00000020: 8b7f d438 817d 86b8 647c 6237 6cd3 52b7
00000030: bbd7 8cb8 e3e7 9938 02cb 9d37 8997 3638
00000040: 9a5b 8e38 805f 8c37 d26f 05b8 4bef 3eb8
00000050: 2dfb deb7 ae50 f036 0d19 bbb8 2861 2638
00000060: c0f9 aab7 f1f6 3bb8 70ce 2db8 9b54 4c38
00000070: dc6e a037 c805 01b8 63ee 2938 9550 8d38
00000080: 2014 0638 921d 45b8 ca27 3d38 0de4 8338
00000090: d715 c037 4623 5c38 cf55 a3b5 177a c637
000000a0: 8dcc 98b6 9544 2e38 b5f7 46b7 4eb3 79b7
000000b0: 0eeb a936 c7e9 c138 0da9 6eb7 73dd 1337
000000c0: 9e10 47b8 d28f dbb6 cd16 d7b7 007b e838
000000d0: cd7e 05b8 2364 4ab8 afc0 e8b6 a898 1537
000000e0: 755b 00b8 65b6 cdb7 33ef 4937 ad2e 4eb8
000000f0: 2dbd 3437 b216 58b8 edac 22b8 8be0 3138
00000100: a497 13b8 a0e2 a6b8 2250 aeb5 6006 eeb7
00000110: 892f f136 4840 1d38 b9ff 7038 b3b9 8a36
00000120: 0b5f 9b37 a9d7 14b8 2c8e 85b6 ad89 26b9
00000130: 3246 29b8 0dcb 8338 cf35 9438 c961 9ab7
00000140: 440a 8c38 88fb 3138 e699 07b6 261a 3b36
00000150: a02e f336 95e3 2738 46b1 e137 e569 e3b7
00000160: bffa a238 43d5 1238 00bb 56b8 aed8 07b6
00000170: 0773 b638 182e eab8 9bc5 61b7 6664 9338
00000180: 2473 1e38 6463 8938 bf8a 25b8 7732 c438
00000190: 7878 8d37 c5b4 0fb8 656a 7d38 b813 2738
000001a0: 0e46 2637 2222 94b6 4f4f 21b8 2185 c336
000001b0: 265b cb37 cd58 3237 a96d 49b8 be4e a2b7
000001c0: 0aad b238 064c 24b8 271e e237 13b7 5438
000001d0: ecb9 7a37 5d05 d3b6 4349 e7b8 ac8d fdb7
000001e0: c071 ecb6 3493 60b7 6003 e438 40c2 9f37
000001f0: 8fd2 0b38 66d9 29b9 3ec8 e134 253c 8e38
00000200: ce57 5d36 8c19 4438 828f 3fb6 8b61 7f37
00000210: 1c0c 4937 ec3f 83b7 8782 fb37 13b4 1b37
00000220: 0168 c4b7 20bb e237 1151 7eb6 96bd 1037
00000230: fdab 0b37 3bde 70b7 ffc1 5038 6847 d837
00000240: 0b44 78b8 444c 8537 e9a4 3537 8976 25b7
00000250: 323a 26b7 9a84 70b8 37a3 2936 6643 e035
00000260: 608e 61b6 1138 da37 787d d6b7 8cd5 2db8
00000270: 8e35 dcb4 4110 24b7 d711 af37 02a7 94b7
00000280: 0574 b237 0917 0a38 caef 1bb7 a4f6 3937
00000290: 12db 0f38 79f6 c8b6 9bfa 4637 9a07 91b6
000002a0: 5280 7eb7 bde7 4eb7 f2ea 2537 5c46 56b6
000002b0: e5ec c737 7aa5 42b8 77a5 3ab7 eac3 fd36
000002c0: fa84 d837 3dd7 12b7 2c6a bc37 a910 9ab6
000002d0: ec14 0138 5f8c 3db8 e856 e2b5 d081 b037
000002e0: 6d26 bbb6 425d 0cb8 0ba6 0238 7f30 a937
000002f0: 173d 8a37 b356 dab6 32ed 6a37 ee72 92b7
00000300: 9c60 aab7 3544 5238 fce1 bc36 444a 7938
00000310: bb65 30b8 088a 0638 36db 51b8 34a4 6935
00000320: 4bc1 d9b6 9e9f 40b7 dd6c 8236 377d fe37
00000330: 1eee e9b7 2240 8bb7 889d 0fb7 cf8a 1c38
00000340: 517f 56b7 00fc cd34 657d 8a35 2c04 b535
00000350: 2745 1ab8 1e97 13b8 bf43 0c37 b635 cc37
00000360: 83ca 2c37 bccb 83b8 745d b5b7 a99c fe36
00000370: ded8 12b8 de5a 41b8 6d18 43b7 0a9a 0bb8
00000380: ad38 d2b7 cd5e c836 3dfd 43b6 63b5 edb6
00000390: 52ef f7b6 df34 35b6 4cf5 3736 f4a0 8936
000003a0: 953d 8238 0e47 a338 f00f 0e38 694c 5237
000003b0: e246 00b6 14f8 5237 d4f7 3138 b7b9 2538
000003c0: b1d6 e9b7 6774 5637 56c8 11b8 537a 83b5
000003d0: 76ad 30b8 3f3d 9db6 194b a038 161e ba36
000003e0: c581 d6b7 9e5a 0538 a066 8ab6 bec6 88b7
000003f0: 1618 07b8 5f41 0038 71e8 8b38 784d 08b8

exp_avg_sq f4 [64, 128]
6.1782714e-08 1.3979909e-06 3.8513184e-07 1.09057545e-07 3.236129e-08 2.5465923e-08 1.1230976e-06 8.166201e-08
9.3729136e-07 4.5221245e-07 1.0298299e-07 1.6893995e-07 3.9819324e-07 1.5427574e-07 2.4976162e-08 1.9665076e-07
4.930858e-07 9.826764e-08 9.514874e-09 2.0569938e-07 8.824883e-08 1.4982145e-08 5.5771386e-07 1.3117909e-07
1.4914231e-07 1.8471438e-07 1.9156356e-07 6.120465e-08 7.482633e-08 6.519285e-08 9.581381e-08 2.615252e-07
8.104385e-07 2.7932003e-07 1.6485274e-07 1.2589851e-07 1.0059848e-08 6.11416e-08 1.4621184e-08 4.2785413e-08
1.3559551e-08 3.549317e-08 2.0120659e-08 4.7902272e-08 6.648794e-08 1.4689151e-06 3.5474446e-08 3.3005623e-09
4.076312e-07 4.356195e-09 1.0138336e-07 1.8498448e-06 6.457133e-08 1.29874e-07 1.1316876e-08 7.698197e-08
3.0586187e-07 1.4362536e-06 1.8949272e-07 4.4155225e-08 3.6935134e-08 2.406953e-07 8.7644725e-07 5.3674043e-08
2.2371724e-07 1.2197803e-06 2.7287587e-08 1.864981e-07 2.2604734e-08 5.451288e-08 4.4015863e-07 3.5405453e-08
3.180127e-08 4.1506365e-08 4.3231903e-08 2.639634e-06 1.4021825e-07 2.022447e-07 9.9004936e-08 6.986169e-09
1.196101e-06 1.0984274e-06 3.7535344e-07 3.846679e-09 1.7735705e-07 2.7590193e-07 1.6717996e-08 2.9859393e-07
2.736089e-07 5.8500987e-08 6.5478844e-07 1.5874688e-08 4.6659284e-07 6.8159784e-07 4.0139582e-08 1.7248273e-07
2.5830499e-08 7.177477e-07 2.1084894e-07 1.2784344e-06 8.57401e-08 1.948931e-07 9.259068e-07 2.655783e-08
8.458533e-08 2.3115957e-08 3.1766652e-07 5.1183505e-08 5.6864074e-08 5.0816226e-08 6.3281425e-07 1.7973916e-08
2.9807723e-07 1.5210146e-07 6.777359e-08 2.0148904e-07 1.1253204e-07 1.9230906e-07 1.1509742e-06 2.4178572e-08
2.5385637e-08 6.6209225e-08 1.0389277e-06 1.5860583e-07 4.7594753e-08 4.4241924e-06 3.626156e-08 9.229179e-07
4.513175e-09 7.619519e-08 5.939471e-09 9.285871e-09 3.3784033e-09 8.400764e-09 2.0005734e-08 5.5105245e-09
2.818894e-08 6.614443e-08 7.924688e-09 1.4154903e-08 6.3054966e-09 5.6773546e-09 7.9418214e-08 2.040592e-08
1.7546003e-07 1.1167425e-08 5.651227e-09 6.5866996e-09 7.0515225e-09 1.2252659e-07 9.206284e-09 6.5122836e-09
1.2769938e-09 4.5238323e-08 4.5813586e-08 6.696499e-08 1.5521736e-09 4.2952584e-09 2.1112074e-08 5.0409334e-09
1.2224917e-08 3.8728434e-08 2.200718e-09 1.0264187e-08 6.158991e-08 2.5634832e-09 7.79407e-09 1.7606756e-09
1.04108615e-08 3.0058105e-09 1.7553627e-09 2.729621e-09 3.3119676e-08 1.1218485e-07 1.811507e-09 1.3245959e-09
5.5308885e-08 7.140371e-09 2.3083494e-08 7.639293e-09 3.1167776e-08 6.579292e-08 1.2584078e-09 1.2767338e-08
4.9663904e-09 2.357024e-08 3.0802035e-08 6.642432e-09 1.3666009e-08 4.5888946e-09 1.6607386e-08 3.5593597e-08
1.554304e-08 1.0749023e-07 1.308492e-09 1.3344105e-07 7.350898e-08 3.691867e-08 1.02003085e-07 3.9041947e-09
6.349021e-09 1.328997e-08 4.2138226e-09 8.523808e-08 3.5922948e-08 1.3256764e-08 3.5286427e-09 5.123022e-08
4.0984965e-08 5.6172706e-09 1.0336695e-08 3.5889133e-10 5.7784096e-08 4.3507193e-08 4.737579e-09 3.6947586e-08
7.497749e-09 1.856449e-07 8.626679e-09 9.820686e-10 5.39458e-08 9.895386e-08 1.8459403e-08 4.9462635e-08
1.0389087e-08 3.6058088e-09 2.0085027e-09 1.4386324e-08 3.8461527e-09 1.844902e-09 3.0187215e-09 2.698814e-09
1.3212006e-07 2.2509862e-07 4.4823516e-08 2.569669e-09 1.5778998e-09 1.10728555e-08 7.1251925e-08 5.296069e-08
5.317603e-08 5.0869335e-09 4.748127e-08 3.1245435e-09 6.585933e-08 1.3564764e-09 2.6148751e-07 4.6102672e-10
2.6508726e-08 2.8724342e-08 8.192643e-09 1.0464267e-08 3.563325e-08 9.464518e-08 2.7844607e-07 4.2401428e-08
00000000: 68ad 8433 9aa2 bb35 1ec4 ce34 0533 ea33
00000010: 9dfd 0a33 28c0 da32 57bd 9635 2a5e af33
00000020: 2c9a 7b35 9bc7 f234 7f27 dd33 dc65 3534
00000030: 43c7 d534 fea6 2534 298b d632 f326 5334
00000040: 995c 0435 3507 d333 dc76 2332 37de 5c34
00000050: 4f83 bd33 16b2 8032 ceb5 1535 3cda 0c34
00000060: ed23 2034 e755 4634 97b0 4d34 9d6f 8333
00000070: 36b0 a033 2600 8c33 33c2 cd33 c067 8c34
00000080: e98c 5935 74f5 9534 6002 3134 b82e 0734
00000090: aed3 2c32 f34c 8333 a630 7b32 0fc3 3733
000000a0: 89f3 6832 2771 1833 ccd5 ac32 1bbd 4d33
000000b0: 22c8 8e33 8a27 c535 915c 1833 1bd0 6231
000000c0: 68d8 da34 7fad 9531 17b8 d933 2f48 f835
000000d0: 77aa 8a33 7e73 0b34 266c 4232 4951 a533
000000e0: 5635 a434 4cc5 c035 5d77 4b34 2fa5 3d33
000000f0: 9ca2 1e33 e938 8134 ff44 6b35 3c87 6633
00000100: ed36 7034 55b7 a335 0a66 ea32 3540 4834
00000110: 562c c232 8c21 6a33 f14e ec34 b510 1833
00000120: de95 0833 bb44 3233 fbad 3933 9124 3136
00000130: e68e 1634 9a28 5934 8a9c d433 fe0a f031
00000140: b889 a035 ae6d 9335 2f84 c934 bf2b 8431
00000150: 896f 3e34 ac1f 9434 439b 8f32 704e a034
00000160: 85e4 9234 8442 7b33 b8c4 2f35 cf5c 8832
00000170: 0880 fa34 0cf7 3635 f065 2c33 b133 3934
00000180: dee1 dd32 3fab 4035 b765 6234 ac96 ab35
00000190: 1e20 b833 cf43 5134 d58b 7835 4921 e432
000001a0: 47a5 b533 8790 c632 c18b aa34 dcd4 5b33
000001b0: b63a 7433 0841 5a33 aade 2935 0f65 9a32
000001c0: 6c07 a034 5551 2334 ed8a 9133 e358 5834
000001d0: 25a9 f133 837d 4e34 2c7b 9a35 3eb1 cf32
000001e0: 9b0f da32 e82e 8e33 4971 8b35 3d4d 2a34
000001f0: fc6a 4c33 8673 9436 02be 1b33 6fbe 7735
00000200: 4f12 9b31 c0a0 a333 2414 cc31 b187 1f32
00000210: 8029 6831 f352 1032 13d9 ab32 1657 bd31
00000220: 2224 f232 490b 8e33 2525 0832 ec2d 7332
00000230: bca7 d831 8a12 c331 a08c aa33 1849 af32
00000240: 1666 3c34 dbda 3f32 b82c c231 3951 e231
00000250: d949 f231 da8f 0334 aa29 1e32 a7c2 df31
00000260: 3a82 af30 104c 4233 92c4 4433 65ce 8f33
00000270: 4154 d530 7e95 9331 f159 b532 8534 ad31
00000280: c105 5232 5d56 2633 713b 1731 5f56 3032
00000290: 6943 8433 4629 3031 afe6 0532 44fc f130
000002a0: 74db 3232 c78e 4e31 5641 f130 0094 3b31
000002b0: 783f 0e33 46ea f033 bdf8 f830 130d b630
000002c0: c38c 6d33 5e57 f531 2449 c632 f73d 0332
000002d0: 55dd 0533 0a4a 8d33 4af4 ac30 5957 5b32
000002e0: d5a4 aa31 8277 ca32 324b 0433 733b e431
000002f0: bec7 6a32 58ac 9d31 07a8 8e32 93df 1833
00000300: 8283 8532 61d5 e633 78d6 b330 ff47 0f34
00000310: fddb 9d33 8290 1e33 ca0c db33 a925 8631
00000320: 9426 da31 e851 6432 2dc9 9031 210c b733
00000330: b349 1a33 ddbf 6332 8a7c 7231 3908 5c33
00000340: 7207 3033 0902 c131 4495 3132 774d c52f
00000350: 492e 7833 aadc 3a33 30c8 a231 4db0 1e33
00000360: 73cf 0032 ae55 4734 8934 1432 78f9 8630
00000370: 09b2 6733 7680 d433 a890 9e32 be70 5433
00000380: b07b 3232 0fca 7731 f405 0a31 b927 7732
00000390: 1e27 8431 b88f fd30 e971 4f31 0a76 3931
000003a0: e3dc 0d34 a3b2 7134 fa83 4033 1896 3031
000003b0: 6add d830 ef3a 3e32 2903 9933 e576 6333
000003c0: aa63 6433 24c9 ae31 35ee 4b33 8db7 5631
000003d0: 8d6e 8d33 c56e ba30 9262 8c34 be73 fd2f
000003e0: 4eb5 e332 7fbd f632 a0bf 0c32 55c6 3332
000003f0: 2c0b 1933 bd3f cb33 567d 9534 dd1c 3633

exp_avg f4 [64]
-0.00012391637 5.9761194e-05 -0.00012165412 0.00021283467 -0.0014582289 0.0003847778 0.00034203994 -0.0003331397
0.0011488191 -0.0012714665 -0.00011579901 0.0007019079 -0.0023421296 -5.757572e-05 0.00050506415 0.0015285263
0.00011708416 -0.0020910427 -7.110531e-05 0.0007985282 0.00056110724 -0.00064283557 -0.00039024252 -0.00021433929
-0.0020721196 0.00034203194 -0.0002487496 0.0026686164 -0.0013532795 -0.0036121542 -0.00018504096 1.3924909e-05
0.0009251746 0.0084305545 -0.00089372153 -0.0011102948 -0.00033518928 -0.0007155357 -0.000593369 -0.0003086228
0.00021645181 -0.00063309516 -0.0006107892 0.00064066204 -0.00019507323 0.00018894655 -0.0013022228 0.00094952993
-0.00017770774 0.0011539235 0.000999081 0.00074841164 -0.0002171491 -0.00034202726 -0.0008392417 0.0016683744
0.00019013243 -0.00034630214 -0.0008623114 -0.0007656854 0.0007353882 -0.0014373057 -0.0007980912 -0.0013351856
00000000: 8cef 01b9 18a8 7a38 8f20 ffb8 5f2c 5f39
00000010: 0b22 bfba 01bc c939 d353 b339 41a9 aeb9
00000020: f993 963a 56a7 a6ba 1fd9 f2b8 3e00 383a
00000030: 6a7e 19bb 757d 71b8 4866 043a d558 c83a
00000040: 148b f538 e009 09bb 5f1e 95b8 5254 513a
00000050: 4517 133a f783 28ba 7799 ccb9 44c0 60b9
00000060: 66cc 07bb c052 b339 9b6a 82b9 f4e3 2e3b
00000070: 8660 b1ba e4b9 6cbb 8e07 42b9 079f 6937
00000080: 6b87 723a 4f20 0a3c a348 6aba 5087 91ba
00000090: 58bc afb9 ca92 3bba 528c 1bba a7ce a1b9
000000a0: 57f7 6239 4cf6 25ba 5f1d 20ba 1af2 273a
000000b0: 928c 4cb9 f41f 4639 59af aaba e0e9 783a
000000c0: 0f57 3ab9 3f3f 973a 98f3 823a 0e31 443a
000000d0: 85b2 63b9 1f52 b3b9 8f00 5cba 5bad da3a
000000e0: 495e 4739 e38f b5b9 bd0c 62ba 47b8 48ba
000000f0: 11c7 403a fa63 bcba fe36 51ba 6501 afba

exp_avg_sq f4 [64]
1.7632948e-06 1.8858168e-07 9.197439e-07 2.812636e-06 0.000113798924 8.721346e-06 5.9826175e-06 5.6802714e-06
7.686455e-05 8.330966e-05 7.4222413e-07 2.5692836e-05 0.00027936065 1.8379076e-07 1.2902354e-05 0.000108531145
8.278134e-07 0.0002316039 2.443555e-07 3.3830056e-05 1.6824026e-05 2.029491e-05 7.847421e-06 2.171806e-06
0.00021148524 5.901299e-06 3.7579227e-06 0.00027124683 9.401569e-05 0.0006330895 1.8517547e-06 9.61104e-09
4.0718565e-05 0.0031166682 4.1587173e-05 6.761217e-05 1.2734767e-05 3.0780546e-05 2.052017e-05 5.119636e-06
2.7269318e-06 2.1049906e-05 1.9542207e-05 2.0153115e-05 2.2907498e-06 2.1908795e-06 8.313452e-05 4.611744e-05
1.995503e-06 6.984411e-05 5.294015e-05 2.8076734e-05 2.7219105e-06 5.6913004e-06 3.700328e-05 0.0001433375
2.1785102e-06 6.609923e-06 3.612292e-05 2.7432094e-05 2.9616283e-05 0.00024993854 3.5855777e-05 0.00010363605
00000000: 59aa ec35 f07c 4a34 52e4 7635 b8c0 3c36
00000010: 55a7 ee38 e551 1237 4bbe c836 2999 be36
00000020: 5732 a138 88b6 ae38 413d 4735 f286 d737
00000030: 2777 9239 0558 4534 3077 5837 379b e338
00000040: e736 5e35 b3da 7239 f72f 8334 bfe4 0d38
00000050: 5221 8d37 fd3e aa37 6ba8 0337 58bf 1136
00000060: 23c2 5d39 c603 c636 9f30 7c36 2236 8e39
00000070: 4a2a c538 ebf5 253a cf89 f835 cd1d 2532
00000080: 3ac9 2a38 0441 4c3b e36d 2e38 02cb 8d38
00000090: 68a7 5537 5c1a 0138 bb22 ac37 57c9 ab36
000000a0: 5500 3736 5494 b037 92ee a337 7c0e a937
000000b0: c8ba 1936 0607 1336 8158 ae38 396e 4138
000000c0: 7bea 0536 4579 9238 0e0c 5e38 5486 eb37
000000d0: 11aa 3636 e6f7 be36 f833 1b38 de4c 1639
000000e0: 8532 1236 ceca dd36 b182 1738 f91d e637
000000f0: 7c70 f837 2f0a 8339 d963 1638 2e57 d938

exp_avg f4 [1, 64]
-0.86637175 -0.62711024 0.35986614 -0.35994092 -0.06784717 -0.4265256 1.2976756 -1.2978649
-0.16944623 -0.8393065 0.12285302 1.169403 -1.1648626 -0.92559314 1.2966181 -0.27573213
-0.34458458 -0.06645629 -0.77689534 0.06812123 0.069411755 -1.2796266 -1.2974994 0.27289566
-0.92229176 1.1034638 0.36011687 0.036769122 -1.3606707 -0.963005 -1.1858985 -0.8907347
1.0994353 1.2748373 0.20903146 -1.0414193 0.4786923 0.16641435 0.38541436 -1.3648931
-0.30217654 -1.2975726 -1.2977054 1.1676482 0.3683292 -0.30189437 -1.211055 1.2959352
0.1652861 1.1689183 -0.01447965 1.1019423 0.10760281 0.3393811 -1.1686388 0.06535219
-0.34470335 -1.2987584 -1.2932668 -1.1036094 0.93209416 -1.0758203 -0.9763868 0.25487152
00000000: 8aca 5dbf 4c8a 20bf 6040 b83e 2d4a b8be
00000010: 75f3 8abd 9061 dabe 3c1a a63f 7020 a6bf
00000020: 5083 2dbe cadc 56bf 5d9a fb3d ffae 953f
00000030: 381a 95bf acf3 6cbf 95f7 a53f c32c 8dbe
00000040: 646d b0be 3c1a 88bd 9de2 46bf 2583 8b3d
00000050: c027 8e3d ceca a3bf 7614 a6bf fbb8 8b3e
00000060: 501b 6cbf 4d3e 8d3f 3d61 b83e 389b 163d
00000070: 752a aebf 7f87 76bf 86cb 97bf 3007 64bf
00000080: 4cba 8c3f de2d a33f 580c 563e 3a4d 85bf
00000090: 2817 f53e 8668 2a3e 0855 c53e d1b4 aebf
000000a0: e2b6 9abe dc16 a6bf 361b a6bf 7f75 953f
000000b0: a595 bc3e e691 9abe da03 9bbf 34e1 a53f
000000c0: c240 293e 1d9f 953f 0e3c 6dbc 720c 8d3f
000000d0: dd5e dc3d 5cc3 ad3e f595 95bf 5ed7 853d
000000e0: f57c b0be b73d a6bf c489 a5bf 1343 8dbf
000000f0: b99d 6e3f 7bb4 89bf 7cf4 79bf 857e 823e

exp_avg_sq f4 [1, 64]
24.756828 17.674295 6.7320123 6.7327 7.09333 8.548598 44.357124 44.374153
6.097332 17.657501 6.103905 43.647526 43.24889 24.873718 44.266968 8.667288
6.624124 7.070202 12.327417 7.098441 7.1204023 43.911568 44.341354 8.615621
24.14462 33.71852 6.7341647 6.684655 55.60213 24.117435 43.783833 33.625843
33.43374 42.545147 6.552262 33.14269 8.42406 6.1119986 8.617425 56.02367
6.6177893 44.347393 44.35922 43.500916 8.441523 6.6156573 33.786938 44.208744
6.118023 43.602875 5.9338036 33.607025 5.9820004 12.0627 43.578194 7.052787
6.6251106 44.448917 43.98786 33.131065 32.955616 33.837135 24.890005 6.605456
00000000: fc0d c641 f564 8d41 a56c d740 4772 d740
00000010: 8ffc e240 0fc7 0841 b26d 3142 227f 3142
00000020: 581d c340 9042 8d41 3153 c340 1197 2e42
00000030: ddfe 2c42 60fd c641 6011 3142 36ad 0a41
00000040: d3f8 d340 183f e240 1a3d 4541 6e26 e340
00000050: 56da e340 72a5 2f42 8c5d 3142 95d9 0941
00000060: 2f28 c141 c4df 0642 477e d740 b2e8 d540
00000070: 9568 5e42 82f0 c041 a522 2f42 dd80 0642
00000080: 26bc 0542 3b2e 2a42 21ac d140 1d92 0442
00000090: f3c8 0641 7e95 c340 f9e0 0941 3d18 6042
000000a0: eec4 d340 bb63 3142 d76f 3142 f000 2e42
000000b0: 7a10 0741 77b3 d340 d325 0742 c1d5 3042
000000c0: d8c6 c340 5869 2e42 b8e1 bd40 986d 0642
000000d0: 8c6c bf40 d200 4141 1250 2e42 6eb0 e140
000000e0: e800 d440 b1cb 3142 92f3 2f42 3686 0442
000000f0: 8dd2 0342 3a59 0742 bb1e c741 e55f d340
